fall_lstm_model.pth (torch, 903017 bytes, 10 tensors)

lstm.weight_ih_l0 f4 [512, 51]
00000000: 5706 c9bc 563f ed3d 79a3 d73b 0084 a33d
00000010: 5e3e 9a3d f03a 85bd 8c5f 09bd 0cfd a83d
00000020: cb99 703d e91e 033d 40a0 7dbd 8bb4 a9bd
00000030: 2010 ee3d b1dc 173d 70d0 d03c aba2 f4bd
00000040: 4e5b 8c3d fb5d a73d 515b ee3d 7405 9b3d
00000050: acf7 1d3c 8fcc 01bd 266a dcba ea78 dd3d
00000060: e14e c83d aee5 793d f141 9b3d 65fd 18bd
00000070: 918d b53b 94e7 cd3b 109d d53d 74f0 473d
00000080: 9c6d d73c 88d6 813d 4a0d b53d 70ef 193c
00000090: 25ba 003d 04cf b0bd a2c0 6dbd dee0 ebbd
000000a0: 58a2 0b3d 3d55 91bd d592 1dbe d995 e2bb
000000b0: 8571 f6bc d314 4bbd cbb3 703b 3c47 83bd
000000c0: 1071 a2bd d605 3ebb 51f7 bf3d 0770 c5bc
000000d0: e3a1 ffbc 8142 b3bd 8172 473d 3b10 ad3d
000000e0: c5bd 7b3c b94c d0bc 8420 b43d 1731 a4bd
000000f0: ea01 ccbc c7b7 fcbc f50f 1abd c3a5 ea3c
00000100: ec2c 8fbc 380a 3037 adcd 2c3d 4ece 003e
00000110: 8b61 273c f15e c63d 9b49 a13d 4636 83bd
00000120: d3a7 13bd e481 6b3d 014d 643d 1d2d 2fbd
00000130: 6d11 a1bb c4f6 84bd 4684 f0bd 0929 80bd
00000140: 6d25 8fbd 9a93 84ba c409 cb3c fb16 77bd
00000150: 434a fa3c f7e7 eb3c e0a1 c73c db09 a7bc
00000160: 676d afbd 63af 163d 2c10 debd 4991 25bd
00000170: 0b14 863d cf4f d33c abba 453d 7190 64bd
00000180: ae5b 81bd 0289 d6bd 8909 31bd 7f55 813d
00000190: eff7 a9bd a650 673d a6ef 243d 33de 4f3d
000001a0: d4c1 dc3b c8d9 813d 7456 9e3b 6388 453c
000001b0: 4fd4 133c 8bff 20bd 80b8 c0bb 7675 2a3c
000001c0: f514 91bd d913 ef3b 8411 ae3d 20ae 7b3d
000001d0: 941e c43c ec2a 21bd 194d 3e3c 44ff 0b3c
000001e0: 329a 82bd ac6e 84bc 27a8 c63b 9f77 153d
000001f0: fcb0 a7bd e727 76bd d2da b2bd b92b 883d
00000200: e1ae 71bd 0e8b 783d a957 e83c bc81 79bd
00000210: 464c 993c 0300 363d 76c1 82bd 3cc5 91bd
00000220: 09bb ff3c e7c5 81bd cae4 69bd 914e 1bbd
00000230: 6a5a 86bd 38cf 5abd 1406 3e3d 17cc 38bd
00000240: 6a39 173d c3df 38bd 5f24 7b3c 5e75 c6bd
00000250: b8b3 e0bd 41fa 123d a61a bdbd 7cbe 6cbd
00000260: 30ba b63b 5637 663d 7f59 a3bc e35c fe3c
00000270: 456a a6bd 015d cfbc 5664 513d 909a 673c
00000280: 440d 963d 15f1 d8bd f3d1 19bd 160d dfbc
00000290: fc95 7cbd 9e72 813d a73d 90bc 47fd b9bb
000002a0: b3b6 803c 3883 dc3d 2954 e4bd 5dd0 0cbb
000002b0: cbf6 fcbb 7716 803d da32 933d 3e3f 4f3d
000002c0: 8763 8cbc ce46 60bc 97c6 21bc a5a1 48bd
000002d0: cd5c 8ebd 36f1 893c ea64 abbd bf62 a2bd
000002e0: 428f 233d ec81 553c b50f aabc d141 ef3d
000002f0: e228 803d 5ad0 f3bc b4b0 8ebc f1ca 753d
00000300: add2 363d 3fe1 35bd 2663 a43d 23e8 81bd
00000310: c363 453d 1f96 4cbd f799 36bd 5036 803d
00000320: e4fc 4abb 7c49 82bd 3cdf a73d e69b 033d
00000330: 385e 8cbd c037 d13c 0895 7f3c 201b aa3c
00000340: 3072 cbbc 6970 89bd 99ec 803a 8995 55bc
00000350: ea27 25bd c7f4 9cbd ab73 0b3d 9b06 473c
00000360: 297f 643d 582c 11be b58d aabb 0c19 8f3d
00000370: d3ec 24bd 454e acbd c575 1d3d 5497 39bd
00000380: 15de 3dbd fb96 9dbc d03b 213d bbe6 91bd
00000390: bab7 d7bd ece7 c63d 4b31 b83c 09fb 273d
000003a0: 97c5 af3c e930 8fbc bd3e 41bd fea9 f73b
000003b0: ff95 dfbd 1822 b73c 3aac 04bd eab7 c5bd
000003c0: f7a4 2dbd c42d d83d abbc 043d 43e1 e53c
000003d0: 9fc3 8e3d 488d 4cbd 40ae b8bb 1964 a0bd
000003e0: aa7a c1bd 4a18 203c d065 0e3d 95a5 23bd
000003f0: 6195 c9bd a29f 653c 8744 573d a9a6 073d
-0.024539156 0.11584346 0.0065807668 0.079841614 0.07531427 -0.06505382 -0.033538386 0.0825139
0.05874042 0.0320119 -0.061920404 -0.08286389 0.11624169 0.037075702 0.025490016 -0.11945089
0.068533525 0.08172222 0.11638511 0.075693995 0.009641569 -0.031689223 -0.0016816303 0.10814078
0.0978067 0.061010055 0.07580937 -0.03735103 0.0055405577 0.00628371 0.10430348 0.0488133
0.026297383 0.06339747 0.08840425 0.009395465 0.03142752 -0.08633235 -0.058045037 -0.115174994
0.03409037 -0.07096336 -0.15388043 -0.006914836 -0.030083427 -0.049580406 0.0036728259 -0.06410071
-0.07931721 -0.0028995178 0.09373344 -0.02410127 -0.031205123 -0.08752919 0.048693184 0.08450361
0.015365069 -0.02542721 0.08795264 -0.08017176 -0.024903256 -0.03084935 -0.037612874 0.028643494
-0.017477475 1.0492797e-05 0.042188335 0.12578699 0.010216127 0.096860774 0.07875367 -0.06406836
-0.03604872 0.05749692 0.0557375 -0.042767633 -0.0049154074 -0.06492379 -0.11743979 -0.06257827
-0.0698956 -0.001011479 0.02478493 -0.06032465 0.030552989 0.028797133 0.02436918 -0.020390442
-0.08565789 0.036788356 -0.10842928 -0.040421758 0.06546792 0.025794892 0.048273724 -0.055801813
-0.06316315 -0.10475351 -0.043221984 0.06315135 -0.08299243 0.056473397 0.04026761 0.050749015
0.0067369733 0.063403666 0.0048320834 0.012056443 0.009022786 -0.039306205 -0.005881369 0.010403981
-0.07084075 0.007296067 0.084994346 0.061445355 0.023940362 -0.039347574 0.011615061 0.008544747
-0.06377067 -0.016166054 0.006062526 0.036491033 -0.08188054 -0.060096648 -0.08733143 0.066489644
-0.05900467 0.060679488 0.028362112 -0.06091474 0.018713128 0.044433605 -0.06384556 -0.071176976
0.031217115 -0.06336575 -0.057102956 -0.037916724 -0.06560214 -0.053420275 0.046392515 -0.04511651
0.03691999 -0.04513527 0.015328496 -0.09690355 -0.10971779 0.035883192 -0.092335984 -0.057798848
0.0055763945 0.056205116 -0.019940136 0.031050151 -0.08125738 -0.025312902 0.05112108 0.014135972
0.07326749 -0.10592858 -0.03755374 -0.02722792 -0.061666474 0.063206896 -0.017607523 -0.005675945
0.015712118 0.107672155 -0.11148865 -0.00214865 -0.0077198497 0.06254285 0.071874335 0.05059742
-0.017137302 -0.013688756 -0.009874008 -0.04898228 -0.06951294 0.016838651 -0.08368857 -0.079289906
0.039931543 0.013031464 -0.020759443 0.11682475 0.06257798 -0.029762436 -0.017418243 0.060007993
0.04463451 -0.044404265 0.080267236 -0.06343105 0.048190843 -0.049947854 -0.044580426 0.06260359
-0.0030973488 -0.06361672 0.081968755 0.0321311 -0.06853908 0.025539279 0.015599497 0.020764887
-0.024834722 -0.06710894 0.0009836137 -0.01303614 -0.04032127 -0.07663875 0.034045856 0.012147571
0.055785332 -0.14177072 -0.005204881 0.06987199 -0.040264916 -0.08413366 0.038442392 -0.045310333
-0.046354372 -0.019237032 0.039363682 -0.071240865 -0.1053309 0.09712204 0.022484442 0.04101089
0.021456523 -0.017479377 -0.047178973 0.0075581064 -0.10917281 0.022355124 -0.03239081 -0.096542194
-0.04239365 0.10555604 0.03240649 0.028061515 0.069709055 -0.049939424 -0.0056360066 -0.07831592
-0.094472244 0.009771416 0.034765065 -0.039952833 -0.09842945 0.01401511 0.052555587 0.033117924

lstm.weight_hh_l0 f4 [512, 128]
00000000: 4c81 d1bb c39e 973d 4e7a 8ebc 0020 18bd
00000010: 5da1 023e e95e 47bd 0fe5 94bb 0d5e cd3c
00000020: 713a 8e3d eb7d 953c 6639 84bd 0c4f 323c
00000030: fd30 aabd 34f5 47bd da61 3ebd 5ce3 94bc
00000040: 3600 e53d 7271 ae3c 6c08 963c 8cfc a13d
00000050: 5fe8 113c 1884 973d d79f 60bd 7271 a5bc
00000060: 1c35 ebbd 7fed fc3c 21d0 e2bd d3a1 80bb
00000070: c02c adbd 8ee7 813d 3b68 4dbd 2b04 053d
00000080: d740 353d 24cf ecbd e76c 9d3c 7ba0 003c
00000090: 6879 1abd f129 733d d2bb ab3d 0e80 ec3d
000000a0: f9bf 9e3c f079 79bd 0796 8b3c 3249 093d
000000b0: 4254 d33d 7bb2 e839 8b3c 153c 3e42 f6bc
000000c0: ad6f 9abc fd00 efbd 70f5 dabd f570 49bd
000000d0: ef55 08bd 8763 903d 4792 08bd 9811 a8ba
000000e0: c245 153d 4bb3 e83d 9c98 563d 6309 f13b
000000f0: 6645 323d df1a 3836 1d0b 8d3d 0c4d d03d
00000100: 5fef b5bd 778e 873d 565d 7a3d 5472 183e
00000110: 7185 f03d 7c03 cfbd 7544 0bbd 77c9 a73d
00000120: e2cf 18bd 9e73 c63d 72c5 89bd 928e 5f3d
00000130: 33b1 ca3c 8703 10bc dc89 053d df3a 163d
00000140: 03cf 663d 5f58 5b3b f9c9 e5bc 8160 1abc
00000150: ba9a 08be cd27 02bd acec 303d 3f88 ccbb
00000160: 4f08 283d b083 913d 635e 753c 002f 0fbd
00000170: 4546 703d e42b 15bd ff6e 3e3d dd3f 84bc
00000180: e382 12bd 0f21 c03d f1c1 bf3b 1536 74bd
00000190: 6ae7 853d 25b9 76bd 2b82 debd 56b2 fdbb
000001a0: 0471 093e bf0e 8ebd a5cf d3bc b935 843c
000001b0: b0e2 2e3d f03e 11bd 36d5 b93c 54f2 a73d
000001c0: d2fa a8bd 43ee 963b e726 09bd fd6d 343d
000001d0: e45e 8f3d 3ada b6bd 5a28 db3d 8119 a83d
000001e0: 7645 023e a8bd b1bd a4b5 9dbd 2c3f b43d
000001f0: 4dd5 8d3c fd7e 90ba 46e7 b1bd 3f52 39bd
00000200: 8c98 09bc c4a9 91bb 6f2e 4abd c4d5 0c3d
00000210: 5df6 9ebc 45ad b63d 7303 ffba 4b94 bd3d
00000220: 5968 c1bd a107 38bc 9dbb 9139 8941 213d
00000230: 6528 abbc bfa5 9f3d a7b2 3e3d d444 a0bd
00000240: 2740 69bd 3f04 fa3c 41cc bd3c 1a06 853d
00000250: 3df5 5d3c 2cc3 de3c 9f56 95bd c4eb fdbc
00000260: 17db 093d 498a 7d3c 8e1f 72bd 27c6 773d
00000270: bfd9 58bd 007b 6b3d daa2 5cbd 14ae 61bd
00000280: 4fa0 713b 3d56 48bc 8e3d 98bd 9f86 b5bd
00000290: d10a aebc d31e 9f3d c130 93bb a60f b23d
000002a0: f88e 5d3d 1b0f 1fbd 0715 53bd 200c a53c
000002b0: 7fc9 ba3d 1567 953c 498c 4c3d d206 1a3c
000002c0: 5e38 ad3c 8dbe b4bd a790 703c 1700 98bd
000002d0: 2582 13bd 41c8 2b3d 503c a5bc 2b65 0f3d
000002e0: 3c8d 06bd d756 babd 41b2 e63c c674 893d
000002f0: 381e 83bc f707 7dbd a5d7 f33a f6b9 363d
00000300: 2dfe 8f3b d360 1fbc 9dc0 ecbc b1eb d73c
00000310: 39d4 683d 4863 563d c46b 56bd 1d1c c1bd
00000320: aa70 7ebd abf5 203b 9d66 543d 13db 7bbd
00000330: 9ce3 7a3d 2b77 92bd ad35 9e3c ac54 a63d
00000340: 616c 9c3b 78b7 633d 34db 5f3d 1db2 9d3c
00000350: 985f 75bd f3df babc 7ea8 963d 6bc8 18bd
00000360: 43ea a13b 0a74 febc c817 3cbc bf42 6d3d
00000370: 04d2 c33c 0e69 8bbd cd76 4d3d ffdd a73d
00000380: a5f2 cfbc 6885 a6bc f03b 8e3c c1d9 96bc
00000390: 1e01 babd 5a22 783d 419c 5cbc 27c1 1a3d
000003a0: e40b 6d3c 297d 6ebc b783 a5bd aadc aebc
000003b0: 6d14 b63d 33b0 b1bd f30b f13c 4642 95bd
000003c0: 3a16 4fbd ccbe 27bd ed7d 55bd 4236 9d3d
000003d0: d870 a3bd f285 573c 7bcb 5c3d f37f a93b
000003e0: dc01 8dbd 8cae 7cbd 6e30 7a3d 6f64 9a3d
000003f0: 8533 0e3d b2d1 903d b44d b0bc e875 1dbd
-0.006393587 0.07403328 -0.017392304 -0.037139893 0.12756868 -0.048674498 -0.0045439075 0.025069261
0.069447406 0.018248519 -0.064562604 0.010883104 -0.08310125 -0.04881783 -0.046480037 -0.01817482
0.11181681 0.02129433 0.018314563 0.079094976 0.008905499 0.07398242 -0.054839935 -0.020195697
-0.11484739 0.030874966 -0.11074854 -0.003925541 -0.08455801 0.06342994 -0.05014823 0.032474678
0.04425129 -0.115629464 0.019216968 0.0078507615 -0.03771344 0.05936617 0.08385433 0.11547862
0.01937865 -0.060907304 0.017039312 0.03351707 0.10318805 0.00044383467 0.009108673 -0.030060884
-0.01885208 -0.116701104 -0.10691345 -0.04917999 -0.033285078 0.07050233 -0.033342626 -0.0012822626
0.03644348 0.113623224 0.052391633 0.0073558553 0.043523215 2.7433778e-06 0.06886885 0.101709455
-0.08883547 0.0661897 0.06112417 0.14887363 0.11744202 -0.101080865 -0.034000833 0.08192723
-0.037307627 0.09690021 -0.06727113 0.054579325 0.024742698 -0.0087899035 0.032602176 0.036677238
0.056349766 0.0033469421 -0.02805041 -0.009422422 -0.13340273 -0.03177624 0.043194458 -0.0062418277
0.04102355 0.071051955 0.014976117 -0.034956932 0.058660764 -0.03641881 0.046492573 -0.016143734
-0.035769355 0.093813054 0.005851977 -0.05962189 0.06538279 -0.06023516 -0.10864671 -0.0077422066
0.13422018 -0.06936406 -0.025855849 0.016138898 0.042696655 -0.035460413 0.022684675 0.08200517
-0.08250965 0.0046060397 -0.033484366 0.044050205 0.07000521 -0.08928342 0.10701056 0.082079895
0.1272181 -0.08678752 -0.07700661 0.088011116 0.017313624 -0.0011024174 -0.0868669 -0.04524445
-0.008398186 -0.0044452865 -0.04936069 0.03438355 -0.019404585 0.08919767 -0.0019455984 0.092568
-0.09443731 -0.011232288 0.00027796338 0.03936914 -0.020893285 0.077952854 0.046557095 -0.07825628
-0.056945946 0.030519603 0.023168685 0.064953044 0.013547239 0.027192675 -0.07291912 -0.03099621
0.033656206 0.015474864 -0.059112124 0.060491707 -0.052942034 0.05749035 -0.053866245 -0.055097654
0.0036869233 -0.012227592 -0.074336156 -0.088635676 -0.021245392 0.07769551 -0.004491896 0.08694391
0.054091424 -0.038832765 -0.051533725 0.020147383 0.091204636 0.01823763 0.049938474 0.00940104
0.021145042 -0.08825407 0.014682925 -0.07421892 -0.036012787 0.041939024 -0.02017036 0.03500859
-0.032849535 -0.09098595 0.02816117 0.06711726 -0.01600562 -0.061775174 0.0018603696 0.04461094
0.004394314 -0.009727675 -0.028900439 0.026357504 0.056843016 0.052340776 -0.052348867 -0.0942919
-0.062119164 0.0024560492 0.051855672 -0.061488222 0.06125222 -0.07151636 0.019312704 0.08121619
0.004773662 0.05559489 0.054652408 0.01924997 -0.05990562 -0.022811865 0.07356356 -0.03730051
0.0049412563 -0.031061191 -0.011480279 0.057924982 0.023903854 -0.06807147 0.050162125 0.08196639
-0.025384257 -0.020327285 0.017362565 -0.01841438 -0.09082244 0.060579635 -0.013464988 0.03778186
0.014468167 -0.014556208 -0.08081763 -0.021345455 0.08890615 -0.086761855 0.029424643 -0.07288031
-0.050558306 -0.040953442 -0.052122045 0.076763645 -0.079805076 0.013154494 0.05390499 0.0051727234
-0.0688512 -0.0616899 0.061081342 0.075386874 0.0347171 0.07071246 -0.021521427 -0.038442522

lstm.bias_ih_l0 f4 [512]
00000000: 3fb2 723d 72cb 85bd 1a43 0e3d 564f 24bd
00000010: b7e4 833c 0361 563d 63c6 20bc 8986 65bc
00000020: 7b1e b0bd 4383 22bd c08d 973d 352d 5a3d
00000030: 8e82 5cbd 95d6 433d 3f5b d8bd af15 963d
00000040: 56ee dd3c 582a 81bb cac7 3f3d ec68 893d
00000050: 448c a0bd 05ac d9bd 03af 283d 2009 82bd
00000060: 169b 283d e08d 8bbd 708f b83c 1a8a 3a3d
00000070: 0b98 773d 6401 373d f158 96bd fae6 a6bd
00000080: 569c 303d 4b96 a8bd 1268 a7bd 221c 4c3c
00000090: 5937 4f3d 58b1 92bd 87ef 533d 1542 633b
000000a0: 580a bcbd 10c4 08bc bfc0 a0bd 6c68 e03c
000000b0: 6bcb ae3c 7b9b b0bd d0d3 b6bc d253 98bc
000000c0: edb2 8cbd 5bec 973d e551 25bc 5d27 35bd
000000d0: 1c23 8dbd 972c a33d 6744 933c 3b92 023d
000000e0: 82aa 6bbd c0b1 5f3c 87ef 8fbd d234 b13c
000000f0: 1f2d f4bd 8d03 46bd 9b29 d93d e177 51bd
00000100: 664f f23c 8ffd d5bc 9303 adbd e629 c53c
00000110: 3ed4 fdbc c795 88bd 95a6 d5bc 19b3 793d
00000120: 509c 87bd 372c ebbb b3ef a1bb 2914 b13c
00000130: 65ac 9dbd 8c0b 623d 2017 a5bd 5dd3 86bd
00000140: 7e97 c1bd 754f 673d 3c5b 943d 4b80 0fbd
00000150: 6e19 703d 337a b1bd c3ec 673c 5087 9f39
00000160: 3055 98bd 7df2 d6bd 580c 0abe 1f55 4d3d
00000170: ab38 183d 8cb3 173c b5a6 3e3c 651a 6a3d
00000180: 2061 6bbd d059 6f3d cf56 bcbc 7768 c8bc
00000190: 2e4e acbd 2409 543d 9a1b 823d bf4e aa3d
000001a0: 1e89 253b cad9 f0bd 4ac3 863d 9491 333d
000001b0: 7adb 693d acb5 ea3c 512b e73d e758 13bd
000001c0: 3b8f 1a3d 9d64 7abd 19aa ac3c 7752 f33c
000001d0: 220a 9ebd 012a 3b3d 8e6f 4b3d 931d 953b
000001e0: b054 8bbd 68a5 f33c 229a c6bd daaa d03c
000001f0: a5ac a7bd 1533 4c3d 5e09 7bbd ea50 913d
00000200: 473c 5a3d b822 24bd 277e 9abc 617f 7ebd
00000210: c2b3 a33d 9a51 34bd d43a 67bc 8eae d3bb
00000220: 6555 a63c 544f a6bb 6c7b ebbd 2eb4 3d3d
00000230: 97b7 9cbc c58d 6abd a31d 94bb 4337 283d
00000240: 6a61 2fbd 672e d4bc f874 cb3d 36f6 0bbe
00000250: 906e c13c f0ef 56bd 1fda aabd 0fa6 99bc
00000260: 059d 6ebd 7cda 07bd d708 44bc 429d bbbd
00000270: a3a1 aebd be18 1bbd e4d4 7abd 49fc 84bd
00000280: ae1e c7bd cd35 45bc aca6 dbbc 16c7 10bd
00000290: 0cea 383d 9719 e33c 3020 0d3d 7845 f33d
000002a0: fb57 88bd 255b c3bb 642f 2bbc 6b3c b7bd
000002b0: 9390 98b9 41a6 e9bd 9eee f8bb cecf 103d
000002c0: 6db2 f8bd 3dca 43bd ae90 0ebe 3280 c6bd
000002d0: d673 9fbc 672f cb3d 6b51 b6bd d196 2abd
000002e0: 10c8 c7bd 6baf c03b faed 20bc dbb3 e53b
000002f0: 8e52 8cbd bd17 a03c b1d3 963d d6b5 39bd
00000300: 0566 8fbd 6b38 5dbd 2e2a efbd 72ca 75bd
00000310: 3d61 cdbd 9ed4 80bd 6dec bcbd 8084 2cbd
00000320: a33f 40bd 984c 00be b3d9 fdbd c523 dc3c
00000330: 6d4e 7c3c 2355 3b3d 589d c93b 68a8 623d
00000340: 6d90 46bd 141d 25bc 3c88 15bd eb57 9fbc
00000350: 606e af3d f0a6 2e3d ded8 6c3d 0d22 f4bd
00000360: 2a54 853d 3a62 45bb 8bce c6bc dc2a c9bb
00000370: 1423 6b3c 231b 1e3d 88d2 f93c 6e6f 48bc
00000380: 0d8c 093d 499f b13d d9cd b2bd 2cf6 29bd
00000390: 8528 29bd c84b b7bd 2b83 6fbd 00ac b23d
000003a0: 2b94 c53d edca 4d3d 6c69 273e 2a09 3fbb
000003b0: b54c 36bd a8ce 14bd df55 fa3c ce42 17bd
000003c0: 538f e6bb 1c01 003d 7533 24bd bc13 3bbd
000003d0: 56b6 a0bc 9fce 313d 5513 e63b 7596 9a3c
000003e0: 1dfd 0d3d 953f 123d cb01 6b3d a875 c0bd
000003f0: fd90 fe3c ba78 8b3d f6b5 303c 75b4 debd
0.05925202 -0.06532945 0.03473196 -0.040114723 0.01610027 0.05233861 -0.009812924 -0.014009126
-0.08599564 -0.039675962 0.074000835 0.05326577 -0.053835444 0.047812063 -0.10564279 0.073283546
0.027091186 -0.0039418153 0.046821393 0.067094654 -0.078392535 -0.10628513 0.04118253 -0.06349397
0.041163526 -0.0681417 0.022529334 0.04554186 0.060447734 0.04467906 -0.07341183 -0.08149524
0.043117844 -0.08231791 -0.08174147 0.012457879 0.050589893 -0.07162732 0.051742103 0.003467684
-0.091816604 -0.008347526 -0.078492634 0.027393542 0.021337232 -0.086234055 -0.022317797 -0.018594656
-0.06870065 0.07418128 -0.010090326 -0.044226993 -0.06891462 0.07967489 0.017976953 0.031877737
-0.057535656 0.013653219 -0.07028108 0.021631632 -0.11922669 -0.04834323 0.10603639 -0.051139716
0.029578876 -0.026121883 -0.08447947 0.02406783 -0.030984994 -0.06669193 -0.026080409 0.060961816
-0.06621611 -0.0071769017 -0.0049419045 0.021616058 -0.07698897 0.055186793 -0.08061051 -0.06583283
-0.09452723 0.05647226 0.07243964 -0.03503446 0.058618 -0.08665886 0.0141555695 0.0003042766
-0.07438123 -0.1049547 -0.13481271 0.050130006 0.037163418 0.009259116 0.011636426 0.057154078
-0.057465672 0.05843526 -0.022990612 -0.024463875 -0.08413349 0.05176653 0.06352921 0.08315801
0.002525873 -0.1176029 0.06580217 0.043840006 0.057094075 0.028651081 0.11287559 -0.035973456
0.03773425 -0.06113111 0.021077203 0.029702408 -0.077167764 0.045694355 0.049666934 0.0045506447
-0.06803262 0.029741958 -0.09697367 0.025472093 -0.08187226 0.049853403 -0.06128823 0.07095511
0.05328014 -0.040072173 -0.018858982 -0.062133197 0.079932705 -0.044023134 -0.014113147 -0.0064600175
0.020304391 -0.0050753746 -0.1149815 0.04631441 -0.019130511 -0.05726411 -0.0045201345 0.041068327
-0.04281751 -0.025901033 0.099344194 -0.13668141 0.02361229 -0.052474916 -0.083423845 -0.01875594
-0.058255214 -0.033167347 -0.011964998 -0.09160854 -0.085269235 -0.037865393 -0.061238185 -0.06493432
-0.097226486 -0.012036753 -0.026812874 -0.035346113 0.04514508 0.027722163 0.034454525 0.118784845
-0.06657406 -0.005961793 -0.0104483105 -0.08947071 -0.00029099415 -0.114086635 -0.0075968048 0.035354428
-0.12143407 -0.04780029 -0.13922378 -0.0969242 -0.019464415 0.09921151 -0.08902248 -0.041647736
-0.09754956 0.0058802865 -0.009822363 0.007009966 -0.068516836 0.01954257 0.07364596 -0.045339428
-0.070018806 -0.054008882 -0.11677967 -0.06000752 -0.10028312 -0.062905535 -0.09224782 -0.04211855
-0.04693569 -0.12529218 -0.123950385 0.026872525 0.015399558 0.04573549 0.00615279 0.055336386
-0.04847758 -0.010077734 -0.036506876 -0.019451102 0.08565974 0.042639673 0.05782401 -0.11920557
0.06510194 -0.0030118362 -0.02426841 -0.0061391424 0.014351625 0.0386001 0.030495897 -0.012233598
0.03358083 0.08672959 -0.087306686 -0.041494533 -0.041298408 -0.08950001 -0.0584747 0.08724213
0.096474014 0.050242353 0.16348809 -0.002914975 -0.044506747 -0.036329895 0.030558525 -0.036928944
-0.0070361285 0.031251058 -0.040088136 -0.045673117 -0.019618195 0.04340994 0.0070213475 0.018870572
0.034665216 0.035705168 0.057374757 -0.09397441 0.031074995 0.06810136 0.01078557 -0.10874263

lstm.bias_hh_l0 f4 [512]
00000000: af86 083d ecf9 a2bd 2911 b9bd 05e0 46bc
00000010: 7074 563d eca6 e03c 78b1 aeb9 421c 903a
00000020: 11ef 91bd 1c0f 89bd 5607 edbb 6a92 44bd
00000030: c893 acbc c4bd 45bd 3027 f3bd 0e8b 723d
00000040: 1f03 fa3b 30a1 ff3c bde2 f4bc 582b 94bd
00000050: d13d b03d f198 06bc f35a bd3c 4d2f 1eba
00000060: 2720 babd 829e b9bd ef76 fe3c cad5 b43d
00000070: fe49 c83c e00a 83bd ff7f 54bb f98b bc3c
00000080: 4037 dfbd 7be7 bebd 25c9 19bc 7c98 a73c
00000090: 218e 98bd 405a aebd ab92 b23b db0e 71bd
000000a0: 7afc 9a3b 13ad 3fbd 3e63 b4bc 675e acbd
000000b0: 2e1f 423d 87e0 5dbd 1bea 6cbd a660 973d
000000c0: 880c 8abc fa39 63bd 9519 e4bd fa3b 313d
000000d0: 2f49 32bd b5d7 d73c 03ad b3bd d2ac 33b6
000000e0: 1176 85bd 9a0d acbd ef68 63bd 2b4f 753d
000000f0: 12c3 e7bc f53a bf3d 1f75 673b 5086 a53c
00000100: e148 63bc 9f8a a1bd 3cfe 65bd 7370 593d
00000110: d1fc 25bd 7355 8e3d 6883 3cbd fc9d db3c
00000120: 5180 093d 148a 8ebd 0a78 c939 f1d7 36bd
00000130: 6c70 3bbd 3039 493d ecce fbbd 162f 16bd
00000140: dfa9 a1bd 8dea ad3d b18e cdbc 9100 b9bd
00000150: a04e 163b a14a 72bc 2cea 843c e347 c5bd
00000160: 89d6 c4bd f53a d3ba 0c8f c9bc 4de2 fc3c
00000170: 6ef0 f6ba 9180 3fbb 58e5 e73b b8ec cbbc
00000180: a565 abbc ffa8 e13b 39f6 b6bb 7090 b43d
00000190: 8a4b b6bb e7f9 82bd 1b32 62bd 1c88 dcbc
000001a0: f5b3 163e b9b3 f23a e551 bbbc 2fee 13bd
000001b0: f7a2 aabd 1267 71bd efce 583d 83b0 f3bd
000001c0: 1a33 133d 0ec5 44bd 28af dc3b f410 c5bd
000001d0: 6e99 ecbd 1611 f03d 5119 aabd ddb2 3ebd
000001e0: 6b16 88bd c998 7f3d 581a dabc 4961 253d
000001f0: 8523 01be a74e c8ba 626a b0bc a39e e2bc
00000200: ccca 4c3d e25c 0fbd b6dc 6dbd 8bfd f03c
00000210: 54a0 8d3d c76c 3c3c b03e b83c 9802 8ebc
00000220: 0660 28bd 7a6b bebb fc2c 84bd 0d51 a53d
00000230: aa5f a8bb 0961 923d f165 f5bd 6043 69bd
00000240: 0cf7 86bc 8284 09be 1b8a 8d3d 1de9 eebd
00000250: 4601 843d ee54 71bd 9879 37bd b676 5ebc
00000260: dcf7 06bd 64f4 fd3c d2cf 8fbc 5e94 6d3d
00000270: f953 cfbd bbe0 ab3d e6a0 cfbd 270f d1bd
00000280: 7547 bfbd 99d2 653d f5d0 e0bd b51a 973c
00000290: 890d 8e3d deca 8fbb 316b a23a caed 873d
000002a0: 4626 6e3b 193f 8abd 561d 0dbd 0ece 30bd
000002b0: 37d0 8c3d 5c79 8bbd 2602 8d3d be9b 473d
000002c0: 8dcf c1bd 24b8 ddbc d8c7 a8bd b796 80bd
000002d0: 5418 7ebc 22e6 573d 133d 023d c9d8 853d
000002e0: 7fc0 81bc 631e 503d afc4 9ebd b6cc 4bbd
000002f0: 4123 a33c f923 81bc 3d41 05bd b169 dc3c
00000300: c116 efbc 6882 8d3b 6db0 d0bc 2447 52bd
00000310: 3562 f4bc dc33 36bd 6c5b 40bd a3e3 a83d
00000320: 37ba f43c 96f5 c6bd e368 90bd b5b1 c93c
00000330: bcbc bd3b e5d3 24bd 5e51 13ba 417b a9bd
00000340: e8c3 893d 22b6 cab9 7d56 483d e3d8 993c
00000350: 299b 283c bc75 7abd 43d3 0bbd 32e5 873b
00000360: 8b75 febc 31a3 38bc aa03 663d 2d59 773d
00000370: e0df 203d c0a5 b4bd 6c55 e7bd e152 3a3d
00000380: 8536 85ba 3f2f 42bd a027 f0bd 7434 24bd
00000390: 2616 a73c 0a12 76bb b10f f6bc ec1b c93c
000003a0: b682 163e e1ba 8b3d 5d7f 273e b7ca 733d
000003b0: c87e 83bd e4fc 013d d2d2 973d ba50 bdbd
000003c0: 5268 b83d ade1 99bc f134 d43c 00cd 4a3a
000003d0: e3e8 b3bd f785 3fbd 5397 0ebe 5e69 44bd
000003e0: 7753 48bd 4169 01be 5b46 983c 0f88 ed3c
000003f0: d9d0 fe3c 99e1 9abc 8337 aebc 0f65 2cbd
0.03333157 -0.07957825 -0.09036476 -0.012138371 0.052357137 0.027423345 -0.0003332009 0.001099475
-0.071256764 -0.06692335 -0.0072335405 -0.047991194 -0.021066561 -0.048276678 -0.11872709 0.059214644
0.0076297666 0.03120479 -0.029893273 -0.0723483 0.086055405 -0.008215175 0.023114657 -0.000603427
-0.09088164 -0.09063436 0.031062571 0.088298395 0.024449345 -0.063985586 -0.0032424924 0.023015963
-0.1089921 -0.09321495 -0.0093863355 0.020458452 -0.07448984 -0.085133076 0.005449613 -0.058852058
0.0047298046 -0.046795916 -0.022019979 -0.08416443 0.047393017 -0.054169204 -0.057840448 0.07391481
-0.016851678 -0.055475213 -0.11137692 0.04327009 -0.043526825 0.026347974 -0.08773234 -2.6773673e-06
-0.0651666 -0.08401032 -0.055519994 0.059889954 -0.028291259 0.09337417 0.0035317612 0.020205647
-0.013872356 -0.07887768 -0.05615066 0.053085756 -0.040524308 0.06949892 -0.046023756 0.026808731
0.033569638 -0.0695993 0.00038427144 -0.04463953 -0.04576151 0.049126804 -0.122953266 -0.036666
-0.078937285 0.08492003 -0.025092455 -0.09033311 0.0022935048 -0.014788301 0.016224943 -0.09632852
-0.09611232 -0.0016115593 -0.024604343 0.030869627 -0.0018839964 -0.0029220919 0.0070769005 -0.02489315
-0.020922491 0.006886601 -0.0055835512 0.08816612 -0.005563204 -0.06395321 -0.055223566 -0.02692037
0.14717086 0.0018516696 -0.022866199 -0.03611582 -0.08331864 -0.058936186 0.052931722 -0.11898901
0.035937406 -0.04803949 0.0067347474 -0.09622374 -0.11552702 0.11722009 -0.0830561 -0.046557296
-0.06644901 0.062401567 -0.02662389 0.04037598 -0.12611206 -0.0015282229 -0.021535102 -0.027663535
0.04999809 -0.03500069 -0.058071814 0.029417774 0.06915346 0.011500544 0.02249083 -0.017335221
-0.0411072 -0.005811152 -0.064538926 0.080721 -0.005138357 0.07147414 -0.119823344 -0.05694902
-0.016475223 -0.13429454 0.06911107 -0.116655566 0.064455554 -0.058918886 -0.044793695 -0.013578108
-0.03295122 0.031000324 -0.017555151 0.058002822 -0.101234384 0.08392473 -0.10138111 -0.10207968
-0.09339801 0.056109045 -0.109773554 0.018445352 0.069361754 -0.0043881973 0.0012391565 0.066371515
0.003633873 -0.06750316 -0.034451805 -0.04316526 0.06875651 -0.06810257 0.068851754 0.04873251
-0.09463415 -0.027065344 -0.08241242 -0.062787466 -0.01550873 0.052709706 0.031796526 0.06535489
-0.01583886 0.05081023 -0.07752358 -0.049755774 0.019914271 -0.015764223 -0.03253292 0.026905866
-0.029185655 0.004318524 -0.025474751 -0.051337376 -0.029831985 -0.04448305 -0.046962187 0.08246543
0.02987395 -0.097148106 -0.070512556 0.02462087 0.005790321 -0.04024114 -0.00056197296 -0.08275462
0.06726819 -0.00038664142 0.048910607 0.018780177 0.010290899 -0.061147436 -0.03413702 0.0041471953
-0.031061908 -0.011269377 0.056155838 0.06038778 0.039276004 -0.08820677 -0.1129559 0.045489196
-0.0010163343 -0.04740834 -0.11726308 -0.040089086 0.020396303 -0.0037547373 -0.03003678 0.024549447
0.146983 0.06822754 0.16357179 0.059519496 -0.06420666 0.031735316 0.07413258 -0.09243913
0.090042725 -0.018784368 0.02590415 0.0007736236 -0.08784654 -0.04675862 -0.13924913 -0.04795205
-0.048907723 -0.12637807 0.018588236 0.028995542 0.031105446 -0.018906401 -0.021266704 -0.042088564

lstm.weight_ih_l1 f4 [512, 128]
00000000: 8a8a 143d 5d06 e03d fa2a 823a cabc c9bd
00000010: df3a debd 4e33 09bd bb7e c1bd b0c6 20bc
00000020: 48e4 33bd 7d31 53bd bdf8 f13c f047 8dbd
00000030: ad39 b93d eb26 31bd 9161 1a3d 9fa7 92bd
00000040: da1a fcbc f4da 7dbb 30e0 183d 2ba3 6abd
00000050: 838e 5d3d 1129 9d3d fdf3 bb3d fb82 b13c
00000060: 1bfd 8c3d 94bd e53c 2c5c 80bd 4845 7e3d
00000070: c4d4 30bd d4a5 babd f263 0d3c 3817 443d
00000080: cba9 6d3d 1fb5 0b3d 3daf 643d 458b a63d
00000090: 5d7c 153d f59d a73c 3829 5abd a3c2 15bd
000000a0: 7186 063c cfc3 c13b 98a6 98bd d11a a1bc
000000b0: 63d3 a1bd 06a5 333d 9135 0fbd 70fe 9ebd
000000c0: 87d8 c0bd 07cb ccbd f5d2 25bd 6ffa 773d
000000d0: 9b33 25bd 82ab 493d 76ec 683c 68d0 48bb
000000e0: 4807 333d 2e71 1a3c c515 de3c 63d0 623d
000000f0: 8764 82bc 1428 afbd fc25 1cbc be79 bebd
00000100: 7355 963d 5446 1d3d e174 4e3d 417f 8abb
00000110: f888 a93d c692 e1bc f491 39bd 9105 163d
00000120: 57ed 0c3d 5952 63ba 5864 b7bd 58e6 8ebd
00000130: f3ce 8f3d d9e5 54bd 28f7 47bb af71 933d
00000140: f0b1 d2bc 9d90 b1bd 027c bebc 4ac9 26bd
00000150: 80e5 5a3d 372a afbc 835b 2b3d 5d5e 89bd
00000160: d017 363d 9dce 2a3d 533f 813d 841f 6b3d
00000170: 7a55 aebc 2538 a6bd 4e58 78bd d120 8cbd
00000180: 257b 5f3d 206e e7bd a1c9 7e3d b664 f43c
00000190: 4b57 69bc 97c5 1f3d 8853 7f3d 22da 133b
000001a0: 111f d8bd 4574 3f3c 36d5 963d 2ed8 2d3d
000001b0: d6ec 2ebc 7e8c 75bd 1ce5 a9bc 6297 80bd
000001c0: fcb2 8dbc 6f98 2f3d f2e0 b13c 919b 01bd
000001d0: fee2 72bd e681 ae3d 73c6 69bd 2328 acbd
000001e0: 9736 2c3d c94d 3cbd 4ee4 393d aee5 90bd
000001f0: 4b04 2abd 5d22 06bc 517f 61bd 6f6b f33c
00000200: 71cb 50bc 6fb5 4d3c 88b3 733d 82ba fcba
00000210: 2c1f 0ebd 6491 79bd 66a3 913d ee08 a43b
00000220: 9179 123d a50f 143d a421 383d aa95 8a3d
00000230: 4120 103d 89cb a53b 8081 12bd 7a77 373d
00000240: 0eec a4bd 6056 073d 997a 4c3c 3b66 303d
00000250: 8460 b83d 268e 5cbd 7840 eb3d 8b75 58bd
00000260: aeef 453d 15b8 fe3c b876 e83c 5c83 b1bc
00000270: 0ae5 3e3d 798f b8ba 698a a2bc fb0e babd
00000280: 4a10 04bd 6ec6 da3c 35fe 86bc c805 993d
00000290: bfb4 093d 00d9 0fbd 96ee e4bb 207c 3b3b
000002a0: 44b7 d93d 8a1b 993d 559f 6a3d 737a 00be
000002b0: 87c3 d1bb bb99 9a3d 159e 7bbd ea6b 62bd
000002c0: f69d 083d 7c78 e0bc df46 d43d de3f 023e
000002d0: b2af eabd f0c7 4d3d e8c1 38bc b890 e7bc
000002e0: 045e 9abd bc67 d2bd ee9a dd3d d575 833d
000002f0: e7ed e8bd 1f4f 83bd 8b85 963d 09ac 9abc
00000300: c3d3 e83d 51b8 9fbd f01b ecbc 2d28 39bd
00000310: 7045 6dbd c864 8abc 7c4d a7bd cb47 553d
00000320: 2223 a33c 9e3f 4dbb be95 493b 744d da3c
00000330: b2d9 f53d 8ab7 37bc b6be b6bb d03f 1cbd
00000340: 1c39 993c 71b7 fb3c 7da3 a0bc 9038 46bd
00000350: 87ca df3c b6a1 e33d 3170 14bd 4315 2d3c
00000360: 4c5d a93c f02e e8bc fe98 46bd 2da4 063d
00000370: f5b9 283d 3fa0 92bd 2bdc 813d 4d38 e63b
00000380: 4a48 0ebd 603c 083d 0623 09be 03bc 6c3c
00000390: 276f e83c 6855 9fbd 9776 043d b4cf 263d
000003a0: 8508 d0bd d06f 853d 7b37 003e 9de2 f53b
000003b0: bf43 323d 1ffa 633c 31ae ecbc dde5 b6bb
000003c0: 96ba 823c 6d2f 323d ab95 393d 39cd 8fbc
000003d0: 73d6 90bd a803 3c3c 910a eabb 69bd 06bd
000003e0: feb7 4b3c 5bc2 90bd ac8f 213d 0207 4f3d
000003f0: 18c2 3c3d 9962 9cbc e095 e1bc b3c0 0dbc
0.036264934 0.10938714 0.0009931021 -0.09850462 -0.108510725 -0.033496194 -0.09448 -0.009812996
-0.043918878 -0.051560868 0.029537553 -0.068984866 0.09044204 -0.043250006 0.037690703 -0.071608774
-0.030774523 -0.0038735243 0.037323177 -0.057284515 0.054090988 0.076738484 0.091773964 0.021668902
0.068842135 0.0280445 -0.062675804 0.06207779 -0.04317166 -0.091136605 0.008629786 0.047873706
0.058023255 0.034108277 0.055831183 0.08132032 0.036495555 0.020461062 -0.053261966 -0.036562573
0.008210764 0.005913235 -0.0745365 -0.019666107 -0.07901647 0.04385855 -0.034963194 -0.07763374
-0.09416299 -0.09999662 -0.040484387 0.060541566 -0.040332418 0.04923583 0.014216533 -0.0030641798
0.043708116 0.009426398 0.02710999 0.055374514 -0.015917076 -0.08552566 -0.009530541 -0.09300564
0.07340517 0.03839715 0.050404433 -0.0042265956 0.08278078 -0.027535807 -0.045305207 0.036626402
0.034406032 -0.00086716335 -0.08954686 -0.06977528 0.07021894 -0.051977012 -0.0030512307 0.07199418
-0.025719613 -0.08670161 -0.02325249 -0.040719308 0.053441525 -0.021382434 0.04183532 -0.067074515
0.044456303 0.041700948 0.06310906 0.057403103 -0.021280993 -0.081161775 -0.06063109 -0.06842197
0.0545608 -0.113003016 0.062204007 0.029833179 -0.014242004 0.039006796 0.06233552 0.0022560437
-0.105528004 0.011685436 0.073648855 0.042442493 -0.010676583 -0.059948437 -0.02073913 -0.06278874
-0.01729726 0.04286998 0.021713708 -0.0316425 -0.059298508 0.0852087 -0.05707402 -0.08406093
0.04204425 -0.04597262 0.045383744 -0.07075058 -0.041508 -0.008186904 -0.05505306 0.029714314
-0.012743817 0.012555464 0.059497386 -0.0019281658 -0.034697697 -0.06092967 0.07111244 0.0050059473
0.035760466 0.036147732 0.044953957 0.067668274 0.03518701 0.0050596637 -0.035768032 0.044791676
-0.08052836 0.033041358 0.012480401 0.043066245 0.09002784 -0.0538465 0.11486906 -0.052846473
0.04832428 0.031093637 0.028376922 -0.021669082 0.046605147 -0.0014080844 -0.01984139 -0.090848885
-0.032242097 0.026705947 -0.016478637 0.07471806 0.03361964 -0.035119057 -0.0069864495 0.002860792
0.10630658 0.07475956 0.057280857 -0.1254671 -0.0064014825 0.07548853 -0.061430056 -0.055278696
0.03335377 -0.027401201 0.1036508 0.12719676 -0.114592925 0.050239503 -0.0112767 -0.02826725
-0.07537463 -0.10273692 0.10820566 0.06418959 -0.11373501 -0.064115755 0.0734969 -0.01888086
0.11368515 -0.077988274 -0.028821915 -0.04520433 -0.05792755 -0.01689376 -0.08169076 0.05207042
0.019914214 -0.0031318436 0.003075942 0.02664826 0.12004413 -0.011213193 -0.0055769337 -0.038146794
0.01870399 0.03072712 -0.019609207 -0.048393786 0.027318252 0.11114828 -0.036239807 0.010564151
0.02067437 -0.028342694 -0.04848575 0.032871414 0.041192967 -0.07159471 0.06340822 0.0070257545
-0.03473691 0.033260703 -0.13392267 0.014449122 0.028373314 -0.07779962 0.03233966 0.040725425
-0.10157875 0.06515467 0.12521164 0.007503821 0.04352164 0.013914614 -0.028891655 -0.005581601
0.015958112 0.04350226 0.04530875 -0.017553912 -0.07072153 0.011475481 -0.007142373 -0.03289548
0.012434004 -0.0706832 0.039443657 0.050543793 0.04608354 -0.019089984 -0.027537286 -0.0086519

lstm.weight_hh_l1 f4 [512, 128]
00000000: 79ee c1ba e694 203d 6a1d 82bd cfc0 423d
00000010: 2140 933d 49ab 3f3d c02a 983c 6d8a c2bd
00000020: 9ed8 813c 50ff 8f3d 29e0 a13d d44c e33c
00000030: f4e2 4cbc cd13 8cbc 446e ee3d e639 f53c
00000040: 7661 7bbd f515 88bb f674 c53c c3d1 01bd
00000050: 00d2 e6bb 5795 a53d b6c6 9a3d 318c dcbb
00000060: c5d0 a03c 901e 9ebb 5568 80bd ea25 6abb
00000070: 4991 a83d 5811 29bd 7fe3 543d 03f9 8ebd
00000080: 1c93 863c 4983 8f3d df99 c73d 92e3 7d3b
00000090: dec3 983d c773 813d 9699 9c3c 8e05 ecbd
000000a0: 45f6 8c3d a278 de3d d0ff 493b 1a58 74bd
000000b0: b24b cdbb 9ac8 59bd 1bd7 683c f23e 663c
000000c0: 8bbf c5ba 69db 8fbd c6b7 7bbd b646 c4bc
000000d0: 7304 2d3b ff30 dfbc 7c90 4abd db69 9ebd
000000e0: 81ed 18bd af81 4d3d 39d2 b63d 644b 4e3d
000000f0: e032 413c 3e83 b23d 83d1 45bd 1535 9cbc
00000100: 0d74 61bd 2275 97bd 26bf 80bd f0eb 5a3d
00000110: 9dc9 85bc 4a25 d83b 9952 a93d 1cdb 3a3d
00000120: 76cb b2bd 5d50 cf3c 6f1b e0bd 0252 973c
00000130: 89d5 823c 475c 26bd d32b 7a3d 4654 fbbc
00000140: c226 aebc 358d f13c 122c 9dbd 9027 0bbc
00000150: 5730 dcbd 5beb d93a 6757 093d c5f5 4e3d
00000160: 88aa ad3b 142b a7bd ff46 8dbc 1d64 403d
00000170: a6b6 c8bc b0b6 6abd ffd9 b7bd dcd7 3a3d
00000180: 6d5e 103c 35f5 003c b7e1 7abc 27e9 ad3d
00000190: b825 b9bd 7ebf 33bd c023 03bb 21bc d63d
000001a0: 8228 5bbd b67d 593d 0685 1e3d 7f0e 7bbd
000001b0: f55d 48bd 411b 8ebd ce23 713c 77a7 983d
000001c0: a959 32bd 8ccc 52bd 459f 253c 9673 7f3d
000001d0: 1803 133d d504 d53d 2d74 3abd a3c9 bbbd
000001e0: 6bcd 473d c8bc 80bd 183f e43c 858e 9dbd
000001f0: 4704 9abd e8d4 873d 5ed7 29bd b9ca 153d
00000200: c6ff a73b 858c 14bd 36bf d53c ff4a 91bd
00000210: 3c8b 20bd bda0 403d 3fcd 94bc bb44 093d
00000220: a1bd 083e 7158 4ebc 60e7 f93c 3ded 1f3d
00000230: 90e4 a33d 654e 653d ee2e 9fbd c31a a5bc
00000240: a03e b83d e1e0 53bc 3046 3dbd 245e a9bc
00000250: a1e0 8c3c 08bc 9fbd d909 b13c d105 633d
00000260: c8b4 043d 513e a73d 728e efbc 4dbd 57bb
00000270: 7da6 b5bd eda1 a83d 909a 0fbd 5a15 02be
00000280: d397 223c 9409 bb3b 7048 88bd 60a6 3abc
00000290: d4b0 95bd 4256 9eba dc8f 1c3d ffdf cd3b
000002a0: 71c1 debd f886 9fbc bf9e 91bd 747c c83d
000002b0: 7613 03bd 1d02 4a3d 54a5 723d a9e9 1a3d
000002c0: 9e35 88bb 9dd7 903d af37 933d c6df 063d
000002d0: 1369 2ebd 1387 c53d b8ff b2bd 1d78 8a3d
000002e0: 82ad aa3c 8eec 8b3d b599 69bd 749b 86bc
000002f0: 5592 1bbd 756d ba3d 44a7 483b 4e7a fb3a
00000300: 37bf c13d 8cee 92bd 5061 8bbd 29a6 a7bc
00000310: 6666 39bd 4e2a eabc 3063 843d c528 b73d
00000320: 2a40 cdbc 16d2 89bc 9e47 26bd 76a1 1ebd
00000330: 4e9a f9bd 06a1 90bd 035c 843d 7fe9 643d
00000340: 237c 023c 55f9 d83d ad6f 833d f7cf c1bd
00000350: 2280 193d 30db 343b 6975 d43c d2e3 52bb
00000360: 2110 ec3c 3ef0 d13d 0159 4dbd ea75 d5bd
00000370: 5c8c 9c3c 2fcf e13d 657a bcbd 1233 b23d
00000380: 6658 3abd 19ca 88bd c09d e73d 03f6 d2bc
00000390: 396b 5ebd 311f 9eba 32a9 4f3d 8f4f 643d
000003a0: 8c6e 423d e95a b23d dcfc bcbd d013 d43b
000003b0: 5d38 8cba 18ad a6ba e888 82bc 61ec 24bd
000003c0: 8e0a 073d e459 dabd d04f a83d d67e b83c
000003d0: 215f 1ebc e265 5fbc bfbc b2bb f5e0 aebd
000003e0: 561e f13d a0ef cb3d 6609 773c 4662 9dbd
000003f0: 10b7 473d bc06 3b3d d4bd ecb8 8b9f 443d
-0.0014795802 0.0392045 -0.063532665 0.047547158 0.07189966 0.04679421 0.018575072 -0.09499059
0.015850361 0.07031119 0.07904083 0.027746595 -0.012505282 -0.017099285 0.11642125 0.029934835
-0.061372243 -0.004153008 0.024103623 -0.031694185 -0.007044077 0.08085125 0.07557432 -0.0067305793
0.0196308 -0.0048254207 -0.062699 -0.0035728165 0.08230836 -0.041276306 0.05197477 -0.06981089
0.01642757 0.070074625 0.097461455 0.0038740379 0.07459234 0.06320911 0.019116204 -0.11524497
0.0688291 0.10862853 0.0030822642 -0.059654333 -0.006265127 -0.053169824 0.014211441 0.014053093
-0.0015086991 -0.07024271 -0.061454557 -0.023959499 0.0026400357 -0.027245043 -0.049454197 -0.07735034
-0.037335876 0.050172504 0.089268155 0.050364867 0.011791915 0.08716439 -0.04829551 -0.01906828
-0.055042315 -0.07395388 -0.06286459 0.053447664 -0.016331488 0.006596242 0.082677074 0.045619115
-0.08730213 0.025306875 -0.109427325 0.018471722 0.015970962 -0.040615346 0.06107695 -0.030679833
-0.021258716 0.029486278 -0.07674421 -0.008493319 -0.107514076 0.0016625928 0.03353062 0.050527353
0.00529987 -0.081625134 -0.017245768 0.046970475 -0.024501156 -0.05730313 -0.08977126 0.045616016
0.008811575 0.007870962 -0.015312604 0.08491736 -0.090403974 -0.043883793 -0.0020010322 0.104851015
-0.053505428 0.053098403 0.03870108 -0.06129312 -0.04891773 -0.06938792 0.014718009 0.074538164
-0.043542538 -0.051464602 0.010108774 0.06236609 0.035891622 0.10401312 -0.04552095 -0.091693185
0.048779886 -0.06286007 0.027862117 -0.07693199 -0.07520347 0.066324055 -0.041465156 0.036570285
0.005126926 -0.036266822 0.026092153 -0.070943825 -0.039195284 0.047028292 -0.018164275 0.033512812
0.13353588 -0.012594328 0.030505836 0.039044607 0.08002579 0.055982966 -0.07772623 -0.020154363
0.0899632 -0.012932033 -0.046209514 -0.020674773 0.017196955 -0.07799536 0.021611141 0.05542547
0.03239897 0.08166183 -0.029242728 -0.0032919229 -0.08869646 0.0823401 -0.03505951 -0.12703457
0.009923893 0.005707929 -0.06654441 -0.011392206 -0.07309118 -0.001208015 0.038223132 0.006282806
-0.1087674 -0.019473538 -0.071103565 0.097893625 -0.03200098 0.04931842 0.0592397 0.037820492
-0.0041567823 0.07072375 0.07188355 0.03292825 -0.042580675 0.09644904 -0.08740181 0.06761191
0.020834688 0.068322286 -0.057031352 -0.016431548 -0.03798135 0.091029085 0.0030617276 0.001918623
0.094602995 -0.071744055 -0.0680567 -0.020464974 -0.04526367 -0.028584626 0.06464231 0.08943323
-0.02505501 -0.01682381 -0.040595643 -0.0387282 -0.121876344 -0.07061963 0.06462862 0.05588674
0.007964167 0.10594431 0.06417785 -0.09463494 0.037475713 0.0027596466 0.025934892 -0.0032179249
0.028816285 0.10250901 -0.05013371 -0.10422881 0.019109897 0.11025845 -0.092030324 0.08701147
-0.04549446 -0.06679172 0.11309385 -0.025752073 -0.054301474 -0.0012063739 0.050698467 0.055739935
0.047468707 0.08708746 -0.092279166 0.0064720884 -0.001069795 -0.0012716381 -0.015934423 -0.04026449
0.03296905 -0.106616765 0.08218348 0.022521418 -0.009666235 -0.013635131 -0.005454629 -0.08539001
0.11773364 0.09957814 0.015077924 -0.0768476 0.048758566 0.04566072 -0.00011288715 0.048003715

lstm.bias_ih_l1 f4 [512]
00000000: 72e0 b53b f68d 4f3d acf3 203d 7719 85bd
00000010: be18 153d f1d0 60bd 91e3 d4bd 4d41 85bb
00000020: c2b4 5c3c 0c59 7f3d e77a a03c da60 0cbd
00000030: 3e50 62bd 4237 4f3d 5be0 c1b9 dc13 d8bb
00000040: 2b8d 78bd f565 43bc e53c aebd 286c febc
00000050: ff99 d83d cfb8 643a 2165 c3bd fbef 86bd
00000060: d484 96bc 9fe8 173d 76c1 64bb b21a aabc
00000070: fad9 863d da7f b6bd 5039 4cbc 35bd fc3c
00000080: efd1 6e3d a9f6 1abd 60f9 193b 0f67 623d
00000090: 4b74 d9bd 9b5c 5abd 0b72 d73c 9bd1 23bd
000000a0: 1878 b0bb b632 803b 00f8 833d 3404 483d
000000b0: d608 27bc 310e febc 8e2a c83b 53bd 543d
000000c0: 6cf4 a53d 596b d3bc f0ce 7bbd 2e76 18bd
000000d0: f6c2 c1bd 460c c4bc a82e f7bc 2858 dfbd
000000e0: 618c 013d 35d3 6abd f596 4bbd 44c7 563d
000000f0: bde4 453d 358d 333d 5c80 113d eb4f 6dbd
00000100: 7a6a 6a3d 48ab bf3a 233b 91bc d14e e1bd
00000110: 1410 64bd 7875 a13c 0ac2 acbd 77c1 dabc
00000120: 2e93 883d a90f 803d 7049 debd 32a1 72bc
00000130: f0f2 173d 6f43 78bd 63f2 203c e57b 19bd
00000140: db07 973c 19fc f4bb 20be b3bd 33ad 913d
00000150: 763f ad3d 53fe 6b3c 4343 623d 1b3d c7bd
00000160: aa67 9d3d a6c2 0a3d 1971 a9bc f6ba 313c
00000170: b58e ca3c 32c2 273d f873 8b3d d62b 73bd
00000180: 4a32 a5bc d52d fb3b 5eac b1bd 184b 34bd
00000190: 36dc ac3c b108 1c3c 0cc6 003d dbc0 a03c
000001a0: de18 2d3c 9dc0 e4bc eab5 86bd 408b 823d
000001b0: 1f73 2ebd 5b7e 953c 6563 0cbc 6f65 cf3c
000001c0: 7c25 aa3c 4e27 793b c016 4bbd 8080 543d
000001d0: be2d ad3d 163d 3f3d 54d4 a8bc 7019 2bbd
000001e0: 4cb3 43bd 908f 4bbd a446 fc3c 1e74 a7bd
000001f0: fc1b 1a3d 8641 42bd 372e de3c 787c 2d3d
00000200: 4a2c 01bd dc59 dfbc 4b78 bfbc 3675 d4bd
00000210: 54f3 5bbc a75e d9bd 7532 3c3c 348f 9a3d
00000220: f4fa 18bd ac0e 95bd 9655 93bd c509 653d
00000230: 3b9c be3c 55bd 50bd f7df abbc 3092 643d
00000240: 7d66 8dbd ddbd 493d eacf c5bd 9bed 9bbd
00000250: 22fc 923c b346 79bc cb57 92bd 9115 a23d
00000260: 75f2 d7bd 1b9f f3bc 2ca6 563d ab29 0c3d
00000270: dcd0 cbbd 326f de3c a1b3 5f3d ead2 e1bc
00000280: a6a2 823d 819b 78bd 9609 2c3c 2977 c03d
00000290: 1add 9b3b 4b7f 383d 8e61 f4bd 184c 88bd
000002a0: c660 e83c f78f 9fbd b745 d6bd c9f5 2a3d
000002b0: 19ba cabd 1c3e 84bd abf3 6cbd 759a 323d
000002c0: 076e 75bc a8c9 553d 6851 653d 990b 093d
000002d0: f8f0 773c 1355 87ba 012c efbd 4f0a 18bd
000002e0: 061b 2cbd f2dd 9ebc fdbd 8e3d 2e65 23bd
000002f0: fce7 d63b ea92 acbd 5ec3 f6bc c052 f73c
00000300: 2f95 5dbd bacb a43d ed9f 7e3d e6b6 c3bc
00000310: 1b8f f8bc fb4b 343d 9ef4 95bc 7029 123d
00000320: 112b 7e3d 1b57 79bd 85f4 e0bd c3c6 96bc
00000330: 76c1 debc 02cd 5ebd 70dc 7cbd 74c7 5cbd
00000340: 6bf6 86bd 02c4 513d 0b15 b7bc 027b fe3c
00000350: a0dc 5bbc f841 283a 6019 61bd e012 533d
00000360: c5fd 3e3d 8f51 f2bd 62e7 b83d d283 74bd
00000370: d93c 783c 1d29 81bd b2c6 e73c 7f5e 04bd
00000380: caae 863d d40e f1bc d4b8 d93d 6ac9 c0bd
00000390: e3c7 d9bc dda9 97ba 99ef 37bd 5c41 b63d
000003a0: af53 e1bd 1185 a1bd c358 ab3d e027 a43d
000003b0: 9fde 823d 3129 b53c 74c0 a0bd cce6 f73c
000003c0: 2c98 403d 7632 e63c 2d91 bcbc 4344 0b3d
000003d0: eb2b 893d f722 e73b f97b 9ebd 6fde 84bd
000003e0: 3f4d 72bd bb40 413d 2e8f 70bb 22b0 a9bd
000003f0: 73eb 59bd e6c2 66bd b408 b23d 2aa9 8c3c
0.0055504376 0.050672494 0.039294884 -0.06498998 0.03640055 -0.054886762 -0.10394967 -0.0040666224
0.01347083 0.06234078 0.019589854 -0.034272052 -0.055252306 0.050589807 -0.00036978986 -0.0065941643
-0.060681503 -0.011926164 -0.085077085 -0.031057432 0.105762474 0.00087250484 -0.09540773 -0.065887414
-0.018373884 0.03708708 -0.003490535 -0.020764682 0.065845445 -0.089111045 -0.012464836 0.03085194
0.058305677 -0.03783289 0.0023494586 0.055274066 -0.10617884 -0.05331097 0.026299497 -0.039994817
-0.00538541 0.003912295 0.064437866 0.048832133 -0.010194978 -0.031012626 0.0061085885 0.051938366
0.081032604 -0.025808023 -0.061476648 -0.03722208 -0.09461014 -0.023931634 -0.030173615 -0.10905486
0.031628016 -0.05733033 -0.04970451 0.05243613 0.048313845 0.043835837 0.035522804 -0.057937544
0.05723045 0.0014623189 -0.017728394 -0.11001361 -0.055679396 0.019709334 -0.084354475 -0.02670358
0.06668697 0.06252987 -0.10853851 -0.01480894 0.037096918 -0.060611185 0.0098234145 -0.03747167
0.018436363 -0.0074763414 -0.08776498 0.07113113 0.0845937 0.014403897 0.055239927 -0.09728452
0.07685788 0.033877037 -0.020683812 0.010847798 0.024726251 0.040956683 0.06809229 -0.059367977
-0.020165581 0.0076653757 -0.086754546 -0.044016927 0.021101099 0.009523557 0.031438872 0.01962321
0.010565011 -0.027923876 -0.06577666 0.06374216 -0.042590257 0.018248728 -0.008568619 0.025316922
0.020769827 0.0038017812 -0.049582243 0.05188036 0.0845599 0.046689115 -0.020609058 -0.041772306
-0.047778413 -0.04969746 0.030795403 -0.081764445 0.037624344 -0.04742577 0.027121646 0.04235503
-0.031536378 -0.027264528 -0.02337279 -0.10373919 -0.013424713 -0.106137566 0.011486639 0.07546845
-0.037348703 -0.07278189 -0.071940586 0.05591752 0.023267856 -0.05096181 -0.020980818 0.055803478
-0.06904314 0.049253333 -0.09658797 -0.07613679 0.017942492 -0.01521461 -0.071456514 0.0791427
-0.10544292 -0.029738953 0.052404568 0.034219425 -0.09951946 0.027152631 0.054614667 -0.027566392
0.06378679 -0.060695175 0.010500332 0.09397728 0.004756582 0.04504327 -0.119326696 -0.06655139
0.028366458 -0.07791131 -0.10462516 0.041738305 -0.098987766 -0.06457159 -0.057849567 0.043604333
-0.014979846 0.052194268 0.05598584 0.033458326 0.015133135 -0.0010325037 -0.11678315 -0.037119206
-0.04201796 -0.019392941 0.06969831 -0.039891414 0.0065584164 -0.08426459 -0.030122455 0.030190825
-0.05409735 0.0804667 0.062164236 -0.023890924 -0.030341676 0.044017773 -0.01830512 0.03568405
0.06205279 -0.060874086 -0.109841384 -0.018405324 -0.027191859 -0.05439473 -0.061733663 -0.05390115
-0.06589969 0.05121232 -0.022348901 0.031064514 -0.0134193 0.00064185215 -0.05495584 0.051531672
0.046628732 -0.11831962 0.09028508 -0.059696026 0.015151226 -0.0630667 0.028292987 -0.03231668
0.06576307 -0.029426016 0.10630956 -0.09413417 -0.026584571 -0.0011571009 -0.044906233 0.08899185
-0.110022895 -0.078867085 0.08366539 0.08015418 0.06390118 0.022114368 -0.078492075 0.03026142
0.047020122 0.028100234 -0.023018444 0.034000646 0.0669783 0.0070537287 -0.0773849 -0.06487738
-0.0591557 0.047180872 -0.0036706435 -0.08285548 -0.053203057 -0.056338213 0.08693066 0.017170507
