fall_transformer.tflite (tflite, 320912 bytes, 37 tensors)

arith.constant f4 [1, 30, 64]
00000000: 3894 533d 9b3d d3bd c5a7 e43c 3424 163c
00000010: ac13 0fbd 4864 6b3b ed62 963c 4f90 2c3d
00000020: 70f3 2cbc 291f 97bc e5f0 cdbc a149 a53c
00000030: 28e6 2cbc e43e dd3c 8420 533d 88ae 5b3c
00000040: 62bf f53b d048 143c 75aa 973c 3042 31bb
00000050: 0bdd 243d 30d5 f23a 1ac6 4fbd 361f 923d
00000060: effd 01bd c0e7 ac3d ef10 8ebd 9abf f13b
00000070: 2c2e 483c 543f 753d dfa9 9f3c 2295 1a3d
00000080: 72ab ed3c 4e3f d1bd 97fd 23bd 6e8b b1bc
00000090: 549c 423d 212b 113d e81f aabd 563c 52bd
000000a0: 142e 133d 8be2 283d e820 5fbd 40c4 bb3d
000000b0: 7860 4f3d a72a d8bd ef59 4bbd 1214 65bc
000000c0: f653 013d d642 95bd 777f 613d d825 af3b
000000d0: f4e4 013d 2ead 503d f086 58bd 32e6 393b
000000e0: c330 b1bd 309a 89bd 1b44 52bd 54db a9bd
000000f0: f418 21bd 64bb b8bc e2d5 ae3c 38bd 963b
00000100: 6878 063d 5b34 aebd 17d1 87bd 50b9 42bd
00000110: 5aff a4bd f95d 96bd c082 b0ba 584b 99bb
00000120: 5c74 713c 1688 053c fe74 4ebc c1fd 823c
00000130: e835 183c 44f0 983c fec3 413d b8bd 31bc
00000140: ca78 67bd 807f 8eb9 6754 823d 8cc5 2cbd
00000150: 527d fcbc fdcc 913d b0e8 a7bb bfe5 823d
00000160: 0ac1 b43b 8713 193d fc6f d33b ae44 853c
00000170: f336 88bd 08bc f3bb 2a66 5ebc b6f7 a9bc
00000180: 94c0 1c3c 7081 98bd 9493 2abd ee87 cabc
00000190: 4d56 8c3b b3bb 0d3c c376 6fbd d853 003d
000001a0: ea34 233c 18ea a23d 1e4a bbbc b2e2 1b3d
000001b0: 9185 b8bc 4aca 4fbd f331 e4bd 1e42 3fbd
000001c0: 8d3e f03c ce68 37bd 3856 88bc 3455 3cbc
000001d0: 232f 3b3d 68f4 d13c 009e 0b3d 505f 1abd
000001e0: 5dfc 7bbd 39aa 64bd 6e73 92bc 5595 6dbd
000001f0: f479 41bd 6cca 4b3c a3fa 5dbd ac9d efbc
00000200: 2a68 b4bc 23f5 93bd 4ebe 5ebd 60e2 9bbc
00000210: 6436 bcbc 72fa 4fbd 1020 503d 5c75 8e3d
00000220: 5a86 873d 7a1f 0c3d 4d65 8b3c f22c 60bd
00000230: 4a96 89bd 89e3 4c3c 212c 943d b5e7 63bd
00000240: 18d0 da3c d0ca 033c b412 223d 9fa8 26bd
00000250: e53e 0e3d 18de 9f3b ea7c afbd d213 5a3d
00000260: 952c 39bc 4ba4 af3d 1e78 66bc c6a6 39bd
00000270: 3897 f53b f4fa 4d3d 4837 66bd 3b58 363c
00000280: ca0e 86bc 5c65 fbbd 7714 003d 7500 843d
00000290: 5899 513d b0c5 16bd 0694 8dbd 6e93 0cbd
000002a0: b037 04bc d640 f33d 519e 86bd 08bf ae3d
000002b0: b8bf f8bc 5621 a9bc d702 55bd 9a7b 99bd
000002c0: fbcc 943c d072 4bbc d873 52bc d1d8 26bd
000002d0: 7045 21bc 9ee2 7e3d b82c c73c 7a7e 78ba
000002e0: 0324 e7bd 0746 6cbd 5fdc 09bd 4629 cdbd
000002f0: 4d3d 8a3c 9c1e 84ba 4090 8ebc 41eb 3f3d
00000300: e823 bb3a e3a0 00bd 4aac 13bd 66fd 35bd
00000310: a15f 91bd 2c5c 85bd 30d7 283b 0b3e ca3c
00000320: dbec 563d 804a 2a3d 6a2e 623c 557c d23c
00000330: fd46 a8bd 261b d4bb dcba 573d 40d6 283c
00000340: bad8 0ebd e894 c63c 9467 203d cc5b 81bd
00000350: f060 54bc ce41 2dbc a0fb 12bb d896 b63d
00000360: c728 753d c024 003a 77ae 853c e35e 41bd
00000370: a2bf 21bd 2c92 dd3b 1bee a2bc f6d1 ab3b
00000380: 3260 0bbd a07c a7bd da85 463c 00ed ceb9
00000390: cef6 243d 7099 2dbd faa8 93bc c057 e5b9
000003a0: 5f85 d0bc 5056 873d 26a0 3abd 26d4 af3c
000003b0: eb07 bbbc e4ac 3dbd 0eff 8dbd bdb4 cabc
000003c0: 545d 1d3d 467d aabd e766 6b3d fefd 2abd
000003d0: b0bb c2bb 2cbf b3bb 9aba b7bc cd8b bcbc
000003e0: 78c9 a4bd e010 e8bd fa9e bcbd 762d debd
000003f0: 241b 78bd 76d7 bd3c a642 5fbd ae1a d53c
0.051655024 -0.10314485 0.02791203 0.009163905 -0.03493087 0.0035917927 0.018357718 0.04212981
-0.010556087 -0.018447476 -0.025139282 0.02017671 -0.01055292 0.027007528 0.05154468 0.013408311
0.0074996212 0.009050563 0.018513897 -0.0027047507 0.040249866 0.001852667 -0.050726034 0.07134859
-0.03173631 0.0844264 -0.069368236 0.007377577 0.0122180395 0.059874848 0.01949018 0.03773988
0.029012416 -0.102171525 -0.040036764 -0.02167293 0.047512367 0.03544152 -0.08306867 -0.051327072
0.035932615 0.041231673 -0.05447474 0.09168291 0.05062911 -0.1055501 -0.049646314 -0.013981836
0.031574212 -0.072881386 0.0550532 0.0053450875 0.031712487 0.050946407 -0.05286306 0.0028365967
-0.08651879 -0.06718862 -0.05133448 -0.08293787 -0.039330438 -0.022550292 0.021342222 0.0046001934
0.032829672 -0.0850608 -0.066316776 -0.04754001 -0.08056517 -0.073421426 -0.0013466701 -0.004678171
0.014737215 0.008150121 -0.012601135 0.01599014 0.009290196 0.018669255 0.047306053 -0.010848455
-0.056511678 -0.00027179345 0.06363755 -0.042180583 -0.030821476 0.071191765 -0.005124174 0.06391477
0.005516176 0.03737214 0.0064525586 0.0162681 -0.06651106 -0.0074381866 -0.0135741625 -0.020748
0.009567399 -0.07446563 -0.041644648 -0.02472302 0.004282749 0.008650708 -0.05846287 0.03132996
0.009961346 0.07954806 -0.02286249 0.03805799 -0.022524627 -0.050730027 -0.111423396 -0.046693914
0.029326702 -0.044777684 -0.016642675 -0.011494923 0.04569925 0.025629237 0.034086227 -0.037688553
-0.06151997 -0.0558264 -0.017877307 -0.058003742 -0.047235444 0.012438398 -0.054194104 -0.029249988
-0.022022326 -0.072244905 -0.054380707 -0.019028842 -0.022975154 -0.050775953 0.050811827 0.06955978
0.066174224 0.034209706 0.017016077 -0.054730363 -0.067181185 0.0125054205 0.072349794 -0.055640895
0.026710555 0.00804396 0.039568618 -0.040688153 0.03472795 0.0048787706 -0.08568747 0.05324156
-0.011302133 0.08576258 -0.014066724 -0.045325063 0.0074948333 0.050288156 -0.056205064 0.011129434
-0.016364474 -0.12275192 0.031269517 0.064454 0.05117163 -0.036809623 -0.06912999 -0.034320287
-0.008069918 0.11877601 -0.06573165 0.0853253 -0.030364856 -0.020645779 -0.05200466 -0.07494278
0.018164149 -0.01241751 -0.012845002 -0.040734116 -0.009843215 0.062227838 0.024313316 -0.00094792957
-0.112861656 -0.05768397 -0.033657428 -0.10017638 0.016874934 -0.0010079923 -0.017402768 0.046855215
0.0014277669 -0.031403434 -0.03605298 -0.044431113 -0.07098318 -0.06511721 0.0025763027 0.024687788
0.052471977 0.041574955 0.013805011 0.025694052 -0.08216665 -0.006472963 0.052668437 0.010304987
-0.034874655 0.024240926 0.03916128 -0.06316337 -0.012962565 -0.010574771 -0.0022427812 0.0891549
0.05985334 0.00048882887 0.016318543 -0.04720963 -0.039489396 0.00676181 -0.019888928 0.005243535
-0.034027286 -0.08178067 0.012116874 -0.0003946796 0.040274434 -0.042382658 -0.01802491 -0.00043743663
-0.025454221 0.0660826 -0.045562886 0.021463465 -0.022830924 -0.04630746 -0.069334134 -0.024744386
0.038419083 -0.08324675 0.057471182 -0.041746132 -0.0059427842 -0.005485436 -0.022427846 -0.023015881
-0.080462396 -0.11331344 -0.0921001 -0.10848515 -0.06057276 0.023174029 -0.05450692 0.026013698

arith.constant1 f4 [64, 128]
00000000: 6b6f f83d ea11 a53d a2d0 ea3d bf6b 4b3d
00000010: 1598 9a3d b45a bc3d f717 fa3d eaa7 173e
00000020: 863a 063e 528a 253e 4982 073e 9b87 ef3c
00000030: 821a da3d 5f56 503e 5cd6 fc3d 37a9 d33d
00000040: e6b7 07be 97b2 59be 6879 bebc 4621 af3b
00000050: 9951 603d a629 ddbd cac8 64be 87cc 5fbe
00000060: 9ca5 6d3d d670 00be 624c 113e dfc0 173e
00000070: d8f6 02be e064 c6bd bb41 20be 1c52 203c
00000080: 1b9d fd3c 9d60 b13d 76e4 18be eff0 17be
00000090: 54a9 3bbc 444f ec3d 1180 a0bd b5d0 83bd
000000a0: 80c2 3abe 45a8 1dbe 1202 98bd b91b c93d
000000b0: 522d 943d 1fb6 fe3c 6bb4 a73c c347 92bc
000000c0: 3829 373d ebce 183e e15a 05be 8a19 a53d
000000d0: ebc4 683d ad04 7dbe 471c 2cbe 6442 11be
000000e0: 9b92 2c3e 1d65 f6bc deeb 12bd ce99 2f3e
000000f0: e91e 1fbd 77eb 10be d4f8 0c3e 8392 2fbe
00000100: 5d2f 20be 5aa6 b6bc d13b 883d 9389 90bd
00000110: 87ff 99bc 6f6d 2a3e e904 223e 34e7 19be
00000120: 4e16 afbd 82a0 69bd 911a abbc e7b6 adbd
00000130: a9c2 c43c 4aed 04be cd65 433d 6409 3b3e
00000140: 085e c2bc 4a20 6e3d 0514 17bd c295 2dbc
00000150: 9b14 92bd 821c 8a3b 01ed 4dbe 7199 ccbd
00000160: 1a85 b73d c537 743d bfc2 f0bd 518a aebd
00000170: 332d 063e d4ab 253d 384c 923c dc27 de3d
00000180: 14e2 1d3e 5768 4a3d a1d2 8c3d 202d a53d
00000190: 8507 fdbd 1b30 b2bd 5764 ff3d eb88 0cbe
000001a0: d11b 0fbe 9231 b43b eacf 6dbd ecd2 99bd
000001b0: f7ef 24be db31 973d fd92 063e bcb3 a6bd
000001c0: 67c4 85bd eca4 613a e62b cdbd cdbb 7fbd
000001d0: 2e1a 173e 525d 3bbe 2c1f 343d f344 473e
000001e0: abe6 d13d c906 f1bd b21a c83c fd85 3ebe
000001f0: f550 1cbe bff7 2bbe a97e a7bd 2153 a93d
00000200: 4920 15be 7c2c 9c3d e496 dc3d 4080 8b3d
00000210: 37b2 ac3d a582 50bd 7e6a 2dbe 5094 04be
00000220: 5f41 163c c3a4 0f3c fc24 febd 4079 e03d
00000230: 6f3b babd a9c8 843c b7d8 e8bb 6638 483d
00000240: 6f5c 0ebd f813 14be 9241 91bd 6923 d3bc
00000250: 67ad 81bc b99f b13c ad60 ffbd 9fb8 7c3d
00000260: f8c3 06be 1207 963d 84c5 b3bd 741d bc3d
00000270: 9674 4d3e b3a1 17be 5380 bb3c 6a8a c7bd
00000280: a900 a0bc ad07 b83c 0d5d ecbd 6c4c 51be
00000290: f850 63bd bc82 96bd 4e03 ad3d ab2a 0f3e
000002a0: 8f7e 13bc a1df cbbd bf6e 5d3b 8426 bb3d
000002b0: de74 16be f913 e23d 13a0 283e 5dc2 1f3d
000002c0: 20ab e83d e78a 973c da46 f93c a13c 08be
000002d0: ea94 c6bd c31f 82bd ca44 cb3c 434c 2bbe
000002e0: 9aa5 4b3e 189f 0a3e 54a4 3f3e 40c1 1dbe
000002f0: 9518 87bd e6ee b1bd f9dd 7c3e af12 1cbe
00000300: d5e6 08be 0333 85bd 610a 473d 89a9 41be
00000310: 4aa9 033d 136a 13bd 1f73 91bd a10e 9dbd
00000320: 712e c5bb 64c8 1ebe 7829 82bd 6997 a6bd
00000330: 4bd0 29be 7569 2bbe 4608 bcbd e12a 983d
00000340: 94d4 1bbe 479c 283d 8bbf 44be 35d3 babb
00000350: 1a2b b6bd 393e cbbd 2762 3dbd 830c f4bd
00000360: a9a1 cf3d 0573 913c 8106 e13d f290 30be
00000370: 4693 2b3e b27b 27be 413d 3d3e c660 8cbc
00000380: 8bbf 1b3e 81ad b2bd 0b77 9b3d e5c3 38bd
00000390: 1411 0ebe 6612 19be 1bfa 93bd 6c7f 02bd
000003a0: 07c2 08be beb0 a1bd 9295 79be 0970 1abe
000003b0: 5a9a 69bc d58f 063e efec 2cbe a954 e8bd
000003c0: 2925 23be 6288 343e 7877 ac3d 61d5 32be
000003d0: 526d 06be e4b3 1bbe 7b46 2d3e 66bf 323d
000003e0: f540 143e 8ab4 e53d 358e a0bd 46c7 7bbd
000003f0: 08a0 a7bd 00de f73d 8cbd 80bd 4682 43be
0.12130626 0.080600575 0.11465575 0.0496633 0.075485386 0.09196988 0.12211602 0.14810148
0.13108262 0.16166046 0.13233294 0.029239466 0.10649587 0.20345448 0.12345573 0.103350095
-0.13253745 -0.21259533 -0.02325125 0.0053445427 0.054765318 -0.107989594 -0.2234222 -0.21855365
0.058019266 -0.12543043 0.14189294 0.14819668 -0.12789476 -0.09687209 -0.15650074 0.009785201
0.030958703 0.08661006 -0.14930901 -0.14838003 -0.011453945 0.11538556 -0.07836927 -0.06436292
-0.18238258 -0.15396221 -0.0742227 0.09819741 0.07235207 0.031092701 0.020471772 -0.017856484
0.044717044 0.14922683 -0.13022949 0.08061512 0.05682842 -0.24708815 -0.16807662 -0.14185482
0.168528 -0.030077511 -0.03586947 0.17148516 -0.038847838 -0.14152323 0.13766795 -0.17145734
-0.15643068 -0.02229612 0.06652034 -0.0705749 -0.018798603 0.16643308 0.15822186 -0.15029603
-0.08549176 -0.057037838 -0.020886691 -0.084821515 0.024018602 -0.12981144 0.047704507 0.18265301
-0.023726478 0.058136262 -0.036884326 -0.010594787 -0.071328364 0.004214824 -0.20109941 -0.09990204
0.08960934 0.0596235 -0.11755895 -0.085224755 0.1310318 0.04044707 0.01785861 0.10847446
0.15418273 0.049415912 0.06876112 0.080652475 -0.1235495 -0.08700582 0.1247031 -0.13724105
-0.13975455 0.0054990733 -0.05805961 -0.07510933 -0.16107164 0.07382556 0.13142009 -0.0813975
-0.065316014 0.0008607644 -0.100181386 -0.06243496 0.1475608 -0.18297318 0.04397504 0.19459896
0.102490745 -0.11768872 0.024426792 -0.186058 -0.15265258 -0.16793726 -0.081784554 0.08267809
-0.14563097 0.07625672 0.107709676 0.06811571 0.08432429 -0.050905842 -0.16935155 -0.12947202
0.009170859 0.00876731 -0.12409398 0.109606266 -0.09093367 0.016208963 -0.0071059125 0.04888191
-0.03475612 -0.14460742 -0.07092585 -0.02577372 -0.015829755 0.021682607 -0.12469611 0.061699506
-0.13160694 0.07325567 -0.087779075 0.09185305 0.20064005 -0.14807777 0.022888338 -0.09743197
-0.019531565 0.022464598 -0.115411855 -0.20439309 -0.05549714 -0.07349154 0.08447896 0.1398112
-0.009002342 -0.09954763 0.0033787934 0.09138206 -0.14693019 0.11038966 0.16467313 0.03900372
0.113607645 0.018498851 0.030429292 -0.13304378 -0.09696372 -0.06353714 0.024813075 -0.1672831
0.1988739 0.13537252 0.1871503 -0.1540575 -0.065964855 -0.086881444 0.24694051 -0.15241502
-0.13369305 -0.0650387 0.048593882 -0.18912329 0.03214387 -0.035989832 -0.07102036 -0.07668806
-0.006017499 -0.1550613 -0.06355566 -0.08134348 -0.16583364 -0.16739447 -0.091812655 0.074300535
-0.15217811 0.041164663 -0.19213693 -0.0057014474 -0.0889494 -0.099239774 -0.046236183 -0.11916449
0.10138256 0.01775504 0.10987569 -0.17242792 0.16755399 -0.1635578 0.18480398 -0.017135989
0.15209787 -0.087244995 0.07591065 -0.045108695 -0.13873702 -0.14948425 -0.07225438 -0.0318598
-0.13355266 -0.07895039 -0.24373463 -0.150818 -0.014257992 0.13140805 -0.16887258 -0.11344273
-0.15932144 0.17630151 0.08421224 -0.1746421 -0.1312764 -0.15205342 0.16921417 0.043639563
0.14477904 0.11216076 -0.07839624 -0.06146934 -0.081848204 0.1210289 -0.06286153 -0.19092664

arith.constant2 f4 [128, 64]
00000000: c74f 22be f8b8 09be 4774 c83d 573d e03c
00000010: d253 d6bd 9ba5 2e3e b21a 0abe 1319 56bc
00000020: 2dd9 01be 70f9 9c3d ed53 50bd 9cba 523e
00000030: ea60 553d 89dd 98bd 262a 40be 684f 483d
00000040: 51a4 373e 61c2 a3bd 27c9 0b3e 688f 06bb
00000050: 4e1b ed3d 5817 bbbd 0c19 e2bd d263 38be
00000060: 0500 25be 78d7 20bb e24b 86bd d865 173e
00000070: 9beb 17be ca3e 003e 2e70 0f3d 3988 afbd
00000080: 171f ff3d 4922 14be f288 11be 6606 0c3d
00000090: 55f5 89bd c5f2 f6bd 45cc 2f3e 1345 203e
000000a0: 2bc7 073e 37ca cbbd 3251 493d b405 0b3e
000000b0: 1b0c 353d ca29 9abd ac4e f1bd a88d 143c
000000c0: 71e9 a33d ba5e 5e3d 91d9 e7bd 0814 0f3e
000000d0: 9f15 afbd e533 cd3c 0dec 963c c28e ddbd
000000e0: 836a 353e 354b 1b3e 5e17 6ebc 3699 b7bc
000000f0: 2b04 ae3d 094b 7d3c 060a d2bc 03f4 e43d
00000100: 46de 09be c310 7a3d 9709 adbd b66c fcbb
00000110: 8591 a43c fa1f e2bb 1c27 7c3d 4549 87bd
00000120: 90e1 afbd 4cb4 1fbb 89ef 773d f258 09be
00000130: b2ef 20be 3433 66bd ca54 b6bd 66c7 ff3d
00000140: 4d66 52bc bd95 0d3e aca3 9e3d 4474 2ebd
00000150: dfe4 90bd df7e bdbd 98b7 45be 7a7a 2c3c
00000160: 8696 163e 0aa4 3c3d 227f c1bc f5b7 5d3d
00000170: 1729 77bc 5f7f 1bbe 711b fcbd 98f6 283c
00000180: 4180 f3bd 48ad 46be 0a60 1e3e aa16 8cbd
00000190: c142 b8bd ed04 43bd 3c3c 8b3d bc99 17bd
000001a0: 3ab9 e43b 5fc9 47bd e3d1 d4bd 7362 d73d
000001b0: acee 9e3d 10c8 173e d229 1f3d c8e2 26be
000001c0: 377a df3c 2d74 efbd e7ac c4bc 38ee 193d
000001d0: a723 af3c 086d efbb 2b55 1fbd 8b30 133e
000001e0: b9d2 92bd 73be 83bd 9489 ae3d 418d 0dbd
000001f0: 9cf4 b8bc 85f2 d4bd e780 08bd 83cf bb3d
00000200: 2c88 3b3e 94f1 833b bae6 e2bb f8a9 f3bc
00000210: 898a 69bd 4180 14be 17f9 e7bd 07d9 193d
00000220: b78f 84bd 0240 55be b07b 35bd 0999 a03c
00000230: 85bd 1a3c 03e5 31be aeab 023e ed5f d1bc
00000240: c37c ed3d ab15 3abe 4191 c6bd 460d 233c
00000250: 215b 433d f160 fe3d bcca 1d3e 7e19 bbbd
00000260: 8542 b43d d57a 223e 2dc4 52be 7df4 5bbd
00000270: 70f2 923d c314 4fbe fe59 febd 107e 8ebd
00000280: 8e63 bc3d 63a6 77bd 8afc 1cbe 56b0 193e
00000290: 92af c6bd 5c2e 98bd 5041 853d 0c13 f73d
000002a0: f9aa 07be b5d1 82bd 6d24 38be 5ae5 39be
000002b0: e42f 0dbe d154 673d c0bb 31be 1066 fabc
000002c0: 2133 0f3d e3aa dbbd 83ef bbbc 8de8 91bd
000002d0: 0639 d83d 924a 8dbd e7e1 353e 180b ce3d
000002e0: a964 f5bd 4f8a 8d3e b061 043e 4d28 aebd
000002f0: f7bf 07be 2a73 b93d 332b 063e 2722 0c3e
00000300: 9955 dabd defd d93d c61a fcbb 323b 113e
00000310: b1e7 13be ef56 423e 4fe0 13bd 13fd 54be
00000320: d951 60be e3ea a93d c8b7 28be f6db 1e3e
00000330: 998c 25be 4507 78bd 1d69 79bd c73f 06be
00000340: 93f4 273e 76e4 0f3e 5b8c 0b3e da30 1b3e
00000350: 4162 babd 1ef9 84bd cbcc 14be 0308 3dbe
00000360: 0027 83bd f548 7abd 0ccd 98bd 6051 c53d
00000370: 731f e0bd 0c05 4c3d e71c 14bd 20d6 913c
00000380: 6bbd 9bbb 1e95 bdbd b6bc 083e 9b0b cc3c
00000390: 88b9 45be b0c9 07bd 6773 9dbd 933d 8ebc
000003a0: 5fe7 cebd 4b6d c5bd 5c8d 89bd 1d30 7cbd
000003b0: d5e9 e23c 3a1d d13d 3b83 f13b 6554 1abd
000003c0: 3470 a8bd 8070 133e 5ef0 4d3e 027f 183e
000003d0: f6ef b63c c17a f4bd 36a4 d4bd 0d59 f5bd
000003e0: df92 06bd 8c5c 07be 1766 66bb 4e41 b1bd
000003f0: a857 1c3d a0c6 c7bd 6967 99bd c103 e8bc
-0.15850745 -0.13449466 0.09787803 0.027373 -0.10465206 0.17055361 -0.13486746 -0.013067502
-0.12680502 0.07664764 -0.050861288 0.20578998 0.052094378 -0.074641295 -0.18766078 0.048903853
0.17933775 -0.07996059 0.13650952 -0.0020532254 0.115774736 -0.09135312 -0.110399336 -0.18006828
-0.16113289 -0.0024542492 -0.06557442 0.14784944 -0.1483597 0.12523952 0.035019092 -0.08570904
0.12457102 -0.14466204 -0.14212397 0.03418579 -0.067362465 -0.12058023 0.17167766 0.1565135
0.1325957 -0.09950679 0.0491497 0.13576394 0.044200998 -0.07527502 -0.117825836 0.009066977
0.0800351 0.054289557 -0.113207944 0.13972485 -0.08549046 0.02504916 0.018423105 -0.108182445
0.17716412 0.15165408 -0.014531938 -0.022411924 0.08496889 0.015459784 -0.025639545 0.11179354
-0.13463697 0.06105114 -0.08449095 -0.007703389 0.02008892 -0.0069007846 0.061560735 -0.06605772
-0.085879445 -0.002436894 0.060531173 -0.13412836 -0.15716437 -0.056201175 -0.08902891 0.12489204
-0.012841773 0.13826652 0.07746062 -0.04259135 -0.07074904 -0.09252714 -0.19308317 0.010527248
0.14705858 0.046054877 -0.023620192 0.054130513 -0.01508548 -0.15185307 -0.123099215 0.010312699
-0.11889697 -0.19402039 0.15466323 -0.0684026 -0.08997107 -0.04761212 0.06798598 -0.037011847
0.0069800885 -0.048776027 -0.10391595 0.105168246 0.07760367 0.14822412 0.038858242 -0.16297448
0.027279956 -0.11692081 -0.024008228 0.0375807 0.021379305 -0.0073066987 -0.038899582 0.14373986
-0.071690984 -0.0643281 0.08522335 -0.03455854 -0.022577576 -0.103978194 -0.033326056 0.09170439
0.18313664 0.004026601 -0.0069244774 -0.029744133 -0.057016883 -0.1450205 -0.11326807 0.03756049
-0.06472724 -0.20825198 -0.04430741 0.019604223 0.009444599 -0.17372517 0.12760803 -0.025558436
0.11596062 -0.18172328 -0.09695674 0.009951895 0.04769433 0.12420834 0.15409368 -0.091357216
0.0880175 0.15867169 -0.20582648 -0.05369996 0.071751475 -0.20222764 -0.124195084 -0.06957638
0.09198676 -0.060461413 -0.15330711 0.15008673 -0.09701456 -0.07430717 0.06506598 0.1206418
-0.13248815 -0.06387655 -0.17982645 -0.18153897 -0.137878 0.05647737 -0.17356777 -0.030566245
0.03496087 -0.107259534 -0.022941357 -0.07124434 0.10557751 -0.06898989 0.17761956 0.1006071
-0.1198209 0.27644584 0.1292789 -0.085037805 -0.13256823 0.09055169 0.13102417 0.13684903
-0.10660858 0.106441244 -0.0076936213 0.14182737 -0.14443852 0.18978475 -0.03610259 -0.20799665
-0.21906222 0.08296754 -0.16476357 0.15513596 -0.16166915 -0.060553808 -0.06089126 -0.13110267
0.16401891 0.14051995 0.1362776 0.15155354 -0.09100772 -0.06492828 -0.14531247 -0.18460087
-0.06403923 -0.061104733 -0.074609846 0.09634662 -0.109434985 0.0498095 -0.036160376 0.017802298
-0.004752805 -0.092569575 0.13353238 0.024907878 -0.19309056 -0.03315133 -0.07688027 -0.017363345
-0.10102724 -0.096399866 -0.06716415 -0.061569322 0.02769939 0.10210653 0.00737038 -0.03767814
-0.08224526 0.14398384 0.20111224 0.148922 0.02233122 -0.11937476 -0.10382883 -0.11979876
-0.03285491 -0.13218898 -0.0035156065 -0.08655034 0.038169533 -0.097546816 -0.07490427 -0.028322103

arith.constant3 f4 [64, 64]
00000000: 51cc 1a3e 2d9a 37bb 61d3 a2bd ac1c 82bd
00000010: 485c 71bd df8e 4abb 38ef c43d c33a babd
00000020: 86f4 133e 4809 6c3c 2ea8 373e a3e7 3dbd
00000030: eabc bebd b13b 9c3d 2482 ca3d 3584 983d
00000040: 5f2e 86bd 1451 b83c f0e9 19be fb6e c9bc
00000050: 2caa 133d 7262 813d b747 e93c 09bb e43d
00000060: fc3e ea3a 165c 5e3b 2dae 3cbd 79ab a43c
00000070: ac0b ecbd 9030 623d 75b2 103e 050f 113e
00000080: 6fac adbd 5ddb cd3c d4eb 093e a420 2a3d
00000090: 19a3 bc3d 55d0 7fbd 8ff7 003e 4aa0 f0bd
000000a0: 9ebd 5fbd e62a a0bd 86c4 11be 6203 b4bd
000000b0: 9921 763c 286f 5a3d 379c d4bc 6f0d c7bd
000000c0: 2493 cabd 23e9 8d3d aff0 20bd 9b8b d93c
000000d0: 7c26 e43d 1c44 053e 9d62 bb3d 1a04 693d
000000e0: e718 d63d cb4e 1fbc 0d11 e83d 8d68 143e
000000f0: 843c 3e3d 8da1 abbd 1cde 6dbd f52d 503d
00000100: 65ed 5f3d 21c3 983c 5169 4fbd 5b8d b6bc
00000110: 74c0 30be 28fb 80bd f91e aa3d 0b79 543d
00000120: a4f2 36bc 1596 963d d185 d43d 5393 0c3d
00000130: fda5 8bbd 4347 2b39 e904 e1bc 5f41 7dbd
00000140: 6929 123e 769a 213c 9f27 c1bd 86fb 213e
00000150: 80be ca3c 3453 fd3d e385 87bd b8ac 3e3d
00000160: 4962 a4bd fd09 dbbd 3741 9abd fa06 50bd
00000170: 33ed 883d a15c 7fbc 7f6d aabb b681 babd
00000180: 0ac9 883d 5e57 723d 8b1b db3d ba0e 0bbd
00000190: 7a4c 80bd bdc1 05be 2ba9 133d 4a86 38bd
000001a0: 6e3c f63b 1b6e 6f3d af22 08be cf26 8dbb
000001b0: 09ce 693d 0011 d93d b202 eebc 2fd6 2ebd
000001c0: bce7 e8bc 86c7 48bc aca8 a03d 02ab 88bb
000001d0: a5e3 023c 5351 173e 0f48 603d f17d f3bd
000001e0: 65af b03b c9d0 29be 1545 863d 60af a73d
000001f0: 45ac 553d 6f7a 983d d86f 723d e282 243d
00000200: 4b67 3d3d a263 5e3d f7b9 3abc e81e 09be
00000210: 32af 953d c3e5 393c cdd5 f0bd d041 98bd
00000220: 4623 e13d 14d1 9c3d 41fb b83d 337e 29bd
00000230: 0a5e c6bd 6894 5b3b 0ca4 60bc c906 f8bd
00000240: ced5 76bb 3b0c cb3b b0bb 75bd 52bd 85bc
00000250: bb96 8d3b f74b 09be 1d93 94bd 3bad d6bd
00000260: f6a9 b13d c521 073e 7eeb e03d ad7f 953d
00000270: 4c93 dc3d 2990 0c3d bb25 23bd 1db4 793b
00000280: c9a3 c7bc 2a16 2d3e 8b01 9dbd fcb5 91bd
00000290: a21b f7bd ae6c 59bd 3a51 d1bc e93b d0bd
000002a0: f1c2 4e3d 3194 513d 6f0d 803b 4bf3 d03d
000002b0: a8a2 613c 12f6 aa3d 45c4 e4bd 60c5 bcbd
000002c0: d248 043e 247e dbbd 1b25 0a3d 8189 c83d
000002d0: cb5a 983d 3dfd aaba ce5c 073d fee0 f4bd
000002e0: f1c5 0d3e 9e4d b6bd bef6 04be f128 2f3d
000002f0: 861b e7bd f79c c2bd 8029 db3d 0cc6 2abe
00000300: 59c8 493d 3649 a5bc d21b bfbd 74d3 32be
00000310: 9bf0 dabd 234b 89ba cf15 7a3d bb84 cfbd
00000320: 07d5 b73c c8a1 02be d35f 86bd 0f27 d6bd
00000330: 023d 24bd b02c 783d 3605 5cbc 52ce 003e
00000340: 11a3 3cbd bcad 9fbc 9c01 bc3d d6e0 eb3d
00000350: 80bd ccbd 42ef b13c 907c 893d 411b 6f3d
00000360: 83ff e33c f09b b53b 8f8f a0bd bf2c c5bc
00000370: 69fd 98bd a78c 97bc 422f d4bd 2ee2 0e3d
00000380: b18b d9bd 0fb4 263d 75f3 3d3d 3160 cdbd
00000390: 2f32 403e b5e7 2dbd d0dd 0abc 563c aa3a
000003a0: ea23 0e3d caec 173e d4e3 0a3e 2594 99bd
000003b0: 98f1 d23c 79ff ccbd bf7b 06be 4977 97bd
000003c0: 47e0 cebb 9b75 2bbd e7aa c53d 80c1 4fbd
000003d0: 2238 d3bc 495d 8fbd 6e3a a93d 1401 623d
000003e0: 930b 8ebd 96d1 983d c09b 563d 0330 bcbd
000003f0: 3742 5bbd 76e4 0bbd ffb4 abbd fb1f 223c
0.15117003 -0.002801548 -0.079504736 -0.06353125 -0.058925897 -0.0030907912 0.0961594 -0.09093239
0.14448747 0.01440651 0.17935249 -0.046363484 -0.09313376 0.07628573 0.098881036 0.074470915
-0.06551813 0.022499599 -0.15030646 -0.024589052 0.03605096 0.06317605 0.02847658 0.111684866
0.0017871554 0.00339294 -0.046064544 0.020101296 -0.11525664 0.055222094 0.14130576 0.14165886
-0.08480155 0.025129015 0.13468868 0.041535035 0.09210796 -0.06245454 0.12594436 -0.11749323
-0.054624192 -0.07820682 -0.14235124 -0.08789708 0.015022659 0.053328663 -0.025953395 -0.09719359
-0.09891346 0.06929233 -0.039292034 0.026555827 0.11140153 0.13014263 0.09149668 0.056888677
0.104539685 -0.009723376 0.11331377 0.14493008 0.04644443 -0.08380423 -0.058073148 0.050825078
0.054669756 0.018647732 -0.050637547 -0.0222842 -0.17260915 -0.06297904 0.08306689 0.051873248
-0.0111662485 0.073528446 0.10377086 0.034320187 -0.06818769 0.00016334378 -0.027468162 -0.06182992
0.14273609 0.0098634865 -0.09431385 0.15818605 0.02474904 0.12369385 -0.06617334 0.046551436
-0.08026559 -0.106952645 -0.0753197 -0.050787903 0.06685867 -0.015586049 -0.005201041 -0.09106772
0.0667897 0.05916535 0.10698613 -0.03394959 -0.06264587 -0.13062187 0.036050003 -0.045049943
0.007514528 0.058454614 -0.1329448 -0.004307605 0.057081256 0.105989456 -0.02905402 -0.04268473
-0.028430812 -0.012254601 0.078446716 -0.0041707763 0.007988845 0.14777116 0.05475622 -0.11889256
0.0053920024 -0.16583551 0.06556145 0.08187747 0.052166242 0.07445227 0.059188694 0.040163882
0.046241086 0.054294236 -0.011396877 -0.13390696 0.073088065 0.011346283 -0.11759529 -0.07434428
0.10993056 0.07657066 0.09032298 -0.04138012 -0.09685905 0.0033505205 -0.013710987 -0.12110669
-0.0037664059 0.0061965263 -0.059993446 -0.016325627 0.004320947 -0.13407885 -0.07254622 -0.1048226
0.086749956 0.13196476 0.109824166 0.07299743 0.10770282 0.03431717 -0.039830904 0.003810174
-0.024370091 0.16902986 -0.0766631 -0.07114789 -0.120658174 -0.05308216 -0.025551427 -0.10167677
0.05047888 0.051166717 0.0039078514 0.102026545 0.01377169 0.083477154 -0.11170248 -0.09217334
0.12918404 -0.10717419 0.033726793 0.09791852 0.074391924 -0.0013045442 0.03304749 -0.11956976
0.1384504 -0.08901523 -0.1298475 0.042763654 -0.112845466 -0.09502595 0.10701275 -0.16677111
0.049263332 -0.020176511 -0.09331478 -0.17463475 -0.10690423 -0.0010474663 0.061055955 -0.10132738
0.022440447 -0.12757027 -0.06561246 -0.104566686 -0.040097244 0.060589492 -0.013428977 0.12578705
-0.04605395 -0.019492023 0.091799945 0.115174934 -0.09997082 0.021720532 0.067132115 0.0583756
0.027831798 0.005542271 -0.07839882 -0.024069188 -0.07470209 -0.018499685 -0.10360576 0.03488367
-0.10622347 0.04069906 0.046374757 -0.10028113 0.18769144 -0.0424573 -0.008475736 0.0012987952
0.03470222 0.14836422 0.13563472 -0.074989595 0.025749967 -0.10009665 -0.13133143 -0.07395799
-0.006313357 -0.041860204 0.09651738 -0.050721645 -0.025783602 -0.070002146 0.08263098 0.05517681
-0.06935801 0.0746185 0.05239463 -0.09188845 -0.053529944 -0.034153424 -0.08384132 0.00989532

arith.constant4 f4 [64, 64]
00000000: 4e5a ab3b fb56 81bc 58e9 803d b703 16bc
00000010: 8698 5dbd 8a49 463b cc27 03bc c6de 78bd
00000020: 99a4 9e3d ff6b 05be 6c9f a6bd 9c94 353d
00000030: 5989 94bc d7fb e43d 6f30 913d f68c e5bc
00000040: 023c 18bc ba58 81bc 95db 73bd fc94 bb3d
00000050: f942 4b3d ad82 7b3d 76b2 76bd e319 5a3d
00000060: af2a 78bd bb81 ba3c d6cd 543d 7f1f 10bd
00000070: c187 133c ddf6 e03d f669 a13d 1f10 ca3c
00000080: 3f1b 99ba 4db9 f6bb 2498 6f3c 4215 9dbc
00000090: dfd7 33bd 33b6 e3bc df5b f8bc 5dd3 43bc
000000a0: 0ebb 08ba 7329 88bc b5a3 d43d 1735 4cba
000000b0: 62eb 823d 26ec f53c 1200 60bd 4406 c7bc
000000c0: 8d98 96bd 123b 90bb a735 60bd 3f3b 063d
000000d0: 9660 86bd e3d0 a4bd d46e a9bd 045a 7dbd
000000e0: e785 773c 0369 463d b05e e3bb 2f93 383d
000000f0: 602d ff3b 71c5 3cbd 8662 1cbc c9e5 7fbd
00000100: e185 b23d 6044 4a3d 9265 5ebd 8d07 72bd
00000110: b479 983d 66a4 a03a 96f2 00bc 1085 953c
00000120: be83 1cbc bd8e 7c3c 023e 683d 96a7 de3c
00000130: 0534 3abd 7947 10bd b2eb 3fbb d1a8 b7bc
00000140: bf5f cc3d dbfa 04bd 4b2c ad3d dcc4 babd
00000150: 9aec 0e3c 54b9 503c 4085 473b bcd9 2dbd
00000160: d1bc ec3c addb 543c 5645 5f3b 6cab 683d
00000170: e3a2 84bc 0ebc e2bc 4b95 aabd 91e5 4abc
00000180: cfb2 c9bc 39c5 8abc cc4f 923d 5fda 75bd
00000190: 55ab c2bc 5a74 833d 7063 593d a82f 5dbd
000001a0: 8b90 693b cb1e a43d 0ec0 a8bd 8b00 fc3b
000001b0: da6c c03c 5e5b 47bc bb6d 20bd 9960 da3c
000001c0: c27e 833d 2550 94bd 6614 50bd c25d 85bc
000001d0: 1ac6 453c 1daa db3c 721c 913c d85f 543c
000001e0: 525a 9ebc a527 2c3d be28 57bb 0e43 b8bd
000001f0: a8b7 7cba e43f 923b 1ed6 da3c d6b8 a23d
00000200: 90dd a4bc 17fd e03c ec4b fdbc cf0c 6f3d
00000210: a255 37bd 50af 9a3b 7ed3 683d a1f8 b3bd
00000220: 5294 f9bc ba9b 83bd 7d9e d0bd 5833 c5bc
00000230: f78c 193d 57f0 723d 371f b0bc fa2d 91bd
00000240: 8060 733d 8ed5 9c3d 8f4b b0bc 32b1 693d
00000250: fbbe 2e3d fd5e ad3c e4c3 55bd 7bf2 9d3d
00000260: 0d49 3fbd 2c85 7e3d a6d8 4cbb 1b1a a8bc
00000270: 284f 943c 665f b93d 8226 f63c 8826 7abc
00000280: f131 243d 5114 1ebc b641 80bc 6d80 84bb
00000290: 8359 b0bb 86e6 d3bc 8ba5 383b b675 ca3d
000002a0: f920 603d 8687 69ba f00a b73d a654 ccbb
000002b0: 7eb6 113d e1a5 273d eaa6 023d 14cc 66bd
000002c0: 27ed 8cbd e4e5 b63c 18c3 3f3d fd75 853c
000002d0: ff95 113d 8cbb 0c3b 266a 27bd a97a 60bd
000002e0: 9e1c 01bd 82e1 7c3b e593 b03c 8a0c ba3c
000002f0: 7656 93bd 1015 b63c 24b8 943d 7e82 013d
00000300: 79e2 6a3d d127 43bd 81ef 7f3b f493 53bd
00000310: f6c6 f7bc 3097 ca3d 745a b33c ab50 24bd
00000320: 1a62 4f3d 7df2 cdbd 8ef9 afbd 3c66 dcbd
00000330: cb98 6b3d 8242 023c 51c3 8c3d bdcc a8bd
00000340: 120e 373d 0c8a 133d 975c 8f3d 7f09 933d
00000350: aa89 063d 7e77 bcbd 2a04 2c3d 493a a63d
00000360: 18c0 05bd 6b2a c83d 8c80 123b a71b 98bc
00000370: 220d 96bd 87c1 bb3c 156b f93c 8a96 31bd
00000380: 8300 37bd 77d8 a8bd 13a8 d4bb 55ee 0cbc
00000390: b2a1 45bd 32d4 36bd e6aa dfbc 1e83 8b3d
000003a0: 1be7 46bc 70b5 ed3d 5049 99bd df3d 13bd
000003b0: 384c 0d3d 5c5c 713d 3d01 9cbc 6437 e93c
000003c0: 0a94 fc3c f44c 9a3d 0871 173c 8b51 95bb
000003d0: 08d5 eb3b a22e 20bd 2144 eb3c 801c 14bd
000003e0: d740 e23c 3978 0cbd 9995 d63d fdf9 9fbd
000003f0: df7e 7dbc d790 fc3c bffa 3fbc a3d3 f03d
0.005229271 -0.015788546 0.06294507 -0.009156159 -0.054100536 0.0030256235 -0.008005094 -0.06075933
0.07746238 -0.13029478 -0.08135876 0.044331178 -0.018131899 0.11180847 0.07089316 -0.028021317
-0.009291651 -0.015789378 -0.05953558 0.09159276 0.049624417 0.06140392 -0.060228787 0.053247344
-0.06058758 0.022766938 0.051954113 -0.035186287 0.009004534 0.109845854 0.078815386 0.02466589
-0.0011681094 -0.007529414 0.0146236755 -0.019175176 -0.043907043 -0.02779684 -0.030317245 -0.011952248
-0.00052158616 -0.016621327 0.10382787 -0.00077898934 0.06392552 0.03001983 -0.054687567 -0.02429498
-0.073533155 -0.004401573 -0.054738667 0.032771345 -0.06561391 -0.080476545 -0.08273092 -0.061853424
0.015107608 0.04843999 -0.006938778 0.04506224 0.0077873915 -0.046086732 -0.009544974 -0.062475
0.087169416 0.049381614 -0.054296084 -0.059089232 0.07445088 0.0012256026 -0.007870337 0.018251926
-0.009552894 0.015414891 0.05669976 0.02717952 -0.045459766 -0.03522441 -0.0029284772 -0.022419365
0.099791996 -0.032465797 0.08455714 -0.09119579 0.008723402 0.012739498 0.0030444413 -0.042443976
0.028898628 0.012991828 0.0034068427 0.056804106 -0.016190952 -0.027677562 -0.083292566 -0.012383834
-0.024621395 -0.016939746 0.07144126 -0.060022708 -0.023763338 0.06418677 0.053073347 -0.054000527
0.0035639133 0.08013686 -0.082397565 0.0076904944 0.023489404 -0.01216778 -0.039167147 0.02665739
0.064206615 -0.07241849 -0.050800703 -0.016280059 0.012071157 0.026814515 0.01771376 0.012962304
-0.019330177 0.042029995 -0.003283068 -0.08997165 -0.0009640404 0.0044631828 0.026713427 0.07945411
-0.02012518 0.027464433 -0.030919991 0.058361825 -0.0447594 0.004720606 0.05684232 -0.087876566
-0.030466232 -0.06426187 -0.10186479 -0.024072334 0.03748795 0.059311237 -0.02149926 -0.070888475
0.0594182 0.0765792 -0.021520404 0.057053752 0.042662602 0.021163458 -0.05218877 0.07712265
-0.046700526 0.06213872 -0.0031257062 -0.02052026 0.01810415 0.09051399 0.030047659 -0.015267976
0.04008669 -0.0096483985 -0.015656333 -0.00404363 -0.0053817644 -0.025866758 0.0028174843 0.09885733
0.054718945 -0.0008908439 0.08937633 -0.006235677 0.03557443 0.04092968 0.031897463 -0.056346968
-0.06881171 0.022326417 0.046816915 0.016291613 0.035543438 0.0021474091 -0.040872715 -0.054804478
-0.031521432 0.0038586562 0.021554897 0.022711057 -0.071942255 0.02222684 0.072616845 0.031618588
0.057344887 -0.047645394 0.0039052668 -0.05165477 -0.03024624 0.09892118 0.021893717 -0.040115993
0.050630666 -0.100560166 -0.08592521 -0.10761687 0.05751876 0.007950427 0.06873191 -0.08242176
0.044691153 0.036020324 0.07000082 0.071795456 0.03284613 -0.09202479 0.04199616 0.08116586
-0.032653898 0.097737156 0.0022354452 -0.018567873 -0.07326724 0.02291943 0.030446569 -0.043356456
-0.044678222 -0.082444124 -0.0064897626 -0.008601745 -0.048249908 -0.04463596 -0.02730317 0.06812118
-0.012140061 0.11606872 -0.074846864 -0.035947677 0.034496516 0.05892597 -0.01904356 0.028468795
0.03083231 0.07534209 0.009243257 -0.00455684 0.007197026 -0.039106973 0.02871901 -0.036159992
0.027618809 -0.03429434 0.10477752 -0.07811353 -0.015472143 0.030830784 -0.011717497 0.117591165

arith.constant5 f4 [64, 64]
00000000: eab4 65bd a37a 4c3d 8a5f 59bd 99db eb3b
00000010: 0ac8 dfbc bb91 f83d 0b30 bc3d 49df 09be
00000020: 101d 21bd 2e4f 9dbd 83e2 0f3d 1acd 083e
00000030: debf 0e3e cb00 9e39 afa4 963d c556 bfbd
00000040: 51df 003d d795 5fbd a099 3fbd 889e 0ebd
00000050: 18c3 b1bc 8638 89bd d502 fcbb 0d2e ebbc
00000060: 4743 743d 3b70 e1bd 0950 083d 0691 053e
00000070: f2cf df3d 54b4 1d3d 57ed a03c cbf4 08be
00000080: 2ff7 c83d 100e 5b3b 278e 7bbd a6e2 193c
00000090: b7e2 f7bc 97a6 0cbe f81f e9bc 515d 283e
000000a0: bb71 fcbc 18f2 473b 7597 c53d 979a f53c
000000b0: 1ed5 813d 3325 9f3d f7b3 8ebc d9b8 abbd
000000c0: 57a2 fabd 693c f4bc f514 e33a c723 ddbd
000000d0: 8a1f 07be c449 dc3d 3c33 293e eb85 0b3e
000000e0: 0bb2 a3bc 77e8 aabd b4d6 69bc 08d2 fb3b
000000f0: 76ba 443d 1591 423d 65b3 ddbc 9477 053e
00000100: 3d2b 3fbe 5a9c 49bc 714d 3a3d 3cec a7bd
00000110: fd2b 453d f113 98bd a752 07be 7666 803d
00000120: 16cf 7cbd 8981 0a3e 8b8e 3fbd fee5 fdbc
00000130: 2ebb f93d 3ae8 0a3d 9be1 553e 60de 1cbd
00000140: 0505 99bd 9545 77bd ad8e edbd bcfc 0a3d
00000150: b064 04be 07bb be3c 1206 61bb 8408 02bd
00000160: 2f46 a83c 8da8 f6bd ab1a 1c3e 21f2 253e
00000170: 420d 743d 528e b93d 576b 2a3d 1e8e 42bd
00000180: 7ecc b03d 45ed 143e 7a2a e0bd f91e 8abc
00000190: 28f9 003d 327d b4bd 04ea 733d 6c29 4e3d
000001a0: f874 b0bc b7d6 0fbd bc56 223d 5968 31bd
000001b0: 03a6 fe3d 48da 36bd 7595 a7bd 0861 4c3d
000001c0: a3d9 22bd 0de2 a43d ad7d 5abd 749e 513d
000001d0: a538 02be f286 4e3c 6105 583d 09ec 1b3e
000001e0: eb19 043d a452 36bc 726a 97bd b583 aa3d
000001f0: 1a40 64bd 43fa 963c 77d3 65bd 900d b6bc
00000200: e34b e03d 760e 42bd 6307 95bc b38a 2dbd
00000210: ebad 54bc 8c29 cbbd 62d7 c93b fb7a cd3d
00000220: bbb3 3bbc 32dd 823d 9f09 d93c 76b6 ebbd
00000230: 9b23 57bd 4e87 4a3d 5b3a 8fbd 7d7d e73d
00000240: ae64 073d a68a 303d 9451 e53d f41c 94bc
00000250: 8dbf f03c 15b2 bd3b dfce 2e3c 9027 643b
00000260: 1830 babd 28f5 ca3d 646c 17be 1333 11be
00000270: 2760 76bc e813 ebbd e93d b13d 2d42 0a3e
00000280: 72dd 19be 84df fcbd 6e76 c73d ce1f 0fbd
00000290: 3dfb 733d 2594 f03d ca39 cf3d 12d5 15be
000002a0: afe3 ac3d 5ebc 423d d724 23be b28f cbbc
000002b0: 2c36 abbd 4a9b febb 9865 dfb7 21a2 bc3d
000002c0: 2113 143e 6b8a debd c6d0 a43d cdcf 0cbc
000002d0: 00df b83d 8cd9 f4bd d154 82bd 41ab ca3c
000002e0: dec2 75bd 1816 b43d 99bb 6b3c d1fa 13bd
000002f0: 9462 943d 4611 04bc 9dec 55bc 2e90 5cbc
00000300: 84cd 423e a267 9d3c 0066 97bd 627e 363d
00000310: bfc6 42bd a5f3 7bbd 35c1 e73c 892d e63c
00000320: 718f 37bd f223 af3d 4f5e efbc 6ab9 86bd
00000330: d79e adbd 84d1 bcbd 5de2 a0bd c382 dfbc
00000340: fe09 e33c fc81 6f3c 266a ca3d 87e6 c0bd
00000350: 806c c93d f820 a73d f88a b83d 3a7e b93d
00000360: 2149 04be 6c55 403e 5786 0ebe e407 5dbc
00000370: e3cf c6bd fb80 143d f280 ff3c 2602 f73d
00000380: 5a61 14be f3c6 fcbd b538 613d 975e 1abd
00000390: d692 debd d3f8 e13d 1b63 9f3b fdd8 0abd
000003a0: d2f5 fd3b 3b4e eb3d 20df 1bbe 74e9 6c3d
000003b0: 1872 90bd 2ebf 46bd e62c 903d f8aa d4ba
000003c0: a3ef ec3d 90b4 efbd c95f 153c 3671 3cbd
000003d0: bb83 543c 9eaf e8bd c292 e0bd b0e7 2abc
000003e0: 5ea5 c03b 602a e23d 5c95 a63d ec65 c8bd
000003f0: f366 933d ae55 b73a 4cc8 ff3d 802b 9f3c
-0.056080736 0.049921643 -0.05306963 0.007197809 -0.027317066 0.12137171 0.09188851 -0.13464083
-0.039334357 -0.07681118 0.035128128 0.1335949 0.13940379 0.000301367 0.0735563 -0.09342722
0.03146297 -0.054586258 -0.046777368 -0.034819156 -0.021699473 -0.06700234 -0.0076907673 -0.028708482
0.059634473 -0.110077344 0.033279452 0.13043603 0.10928334 0.038502052 0.019644422 -0.13374631
0.098127715 0.003342513 -0.061414864 0.009392416 -0.030259473 -0.13735424 -0.028457627 0.16441847
-0.03081595 0.003050929 0.09648029 0.02998094 0.06339477 0.07770767 -0.017419798 -0.08384866
-0.12237995 -0.029813962 0.0017324971 -0.107978396 -0.13195625 0.10756257 0.1652345 0.13625304
-0.019982358 -0.083451204 -0.014272381 0.00768495 0.048029386 0.047501642 -0.027063081 0.13033897
-0.18668838 -0.0123053435 0.04548401 -0.08199355 0.048137654 -0.074256785 -0.13215123 0.06269543
-0.06172093 0.13525976 -0.0467668 -0.030993458 0.12193905 0.033912875 0.20886843 -0.03829801
-0.074716605 -0.060369093 -0.11599479 0.033932433 -0.12929034 0.023282541 -0.0034335894 -0.031746402
0.020541279 -0.12043867 0.15244548 0.16205646 0.059582956 0.090603486 0.041606274 -0.047498815
0.08632754 0.14543636 -0.10945602 -0.016860472 0.031487614 -0.088129416 0.059549347 0.05033247
-0.02154015 -0.035116877 0.039633498 -0.043312404 0.12434008 -0.044641763 -0.081828035 0.049897224
-0.039758336 0.08050928 -0.05334251 0.051176503 -0.1271692 0.012605416 0.052739505 0.15226759
0.03225128 -0.0111281015 -0.0739335 0.083259024 -0.055725195 0.018429881 -0.05610987 -0.022223264
0.10951974 -0.047377072 -0.018191999 -0.042368602 -0.012980918 -0.09920034 0.006159709 0.10033222
-0.011456425 0.06389846 0.026493846 -0.11509411 -0.05252419 0.049445443 -0.06993552 0.11303232
0.033055 0.043100975 0.111972004 -0.018080212 0.029388214 0.0057890513 0.010669439 0.003481362
-0.090912044 0.09910041 -0.14787441 -0.1417964 -0.015037573 -0.11478406 0.086543866 0.13501807
-0.15025881 -0.1234732 0.097393855 -0.03494244 0.05956577 0.11747006 0.10118444 -0.14632061
0.08441865 0.047542922 -0.15932022 -0.024848793 -0.08359942 -0.0077699767 -2.663098e-05 0.09210611
0.14460422 -0.10866245 0.08047633 -0.008594465 0.09026909 -0.11955556 -0.06363834 0.024739863
-0.060000293 0.087932765 0.0143879885 -0.03612787 0.07245365 -0.008060759 -0.013056901 -0.0134621095
0.1902371 0.019214455 -0.07392502 0.04455412 -0.04755282 -0.061511654 0.02829037 0.028097885
-0.04481453 0.08551778 -0.029219775 -0.06578334 -0.08477562 -0.092196494 -0.07855675 -0.027284032
0.027714726 0.014618393 0.098835275 -0.094189696 0.09835148 0.08160585 0.09010881 0.09057279
-0.12918521 0.18782586 -0.13918434 -0.013490651 -0.0970762 0.036255818 0.031189416 0.12060957
-0.14490262 -0.12342634 0.05498572 -0.037687864 -0.108678505 0.110337876 0.004864109 -0.033898342
0.0077502513 0.11489531 -0.15221834 0.057839826 -0.07053012 -0.048522167 0.07039814 -0.0016225269
0.115691446 -0.117043614 0.009117075 -0.046006404 0.01297086 -0.11361621 -0.10965492 -0.010431215
0.0058790883 0.11043239 0.08133957 -0.09785065 0.071973704 0.0013987327 0.124893755 0.019429922

arith.constant6 f4 [64, 64]
00000000: 69b6 6fbd 6884 803c 76e8 6bbd bb61 363d
00000010: f3b8 eb3d 8a78 83bc cf7b 0bbe b65d 333e
00000020: dbb4 c63c b3a6 c93d f299 2b3c 4658 f6bc
00000030: b81f da3a f51c 97bd 3ab9 b0bd fd0e d1bd
00000040: 914d 00be 2ce8 97bb 16c4 9f3d ba42 07be
00000050: 5ccc 48be 16d5 243e b864 253e 3b91 883c
00000060: 77ca 86bd 95e0 d73c afc4 2c3e 473c 45bd
00000070: 87c6 cabd dfbc 363d 7a99 13be 6465 b83d
00000080: 27f7 c5bd dfc2 25bd 48e9 063c 8519 fd3d
00000090: 3606 63bd 563c d339 406f 18bc 65a4 883c
000000a0: 027e 57bc d313 033c 4319 23be 0b8d cd3d
000000b0: 8bb3 3dbd 617c abbd 8409 af3d 2df2 fe3c
000000c0: 0b95 153e 0076 99bd ac61 093c fc93 45bd
000000d0: cdfc 8b3d e000 443d 687d ae3d 2f47 673d
000000e0: 1f00 943c a0c2 9b3c 4bc8 01bd 6b87 d8bd
000000f0: 16a7 893d 27a1 97bd 5a9f cc3c 176a 693d
00000100: 3fbf 03be 491d f3bc 9b39 73bd c7a5 e93d
00000110: 0a60 fe3c 6689 efbc 8a12 07bc 11a9 4a3c
00000120: c515 ad3c 5a0c a43d 2212 35bd 3d40 8b3c
00000130: eeb9 31bc a821 46bd 6289 d7bd e252 bb3c
00000140: 52a9 cabd 9ae6 33bd cff1 363c 8cd9 1c3d
00000150: 75a9 a5bd 4c42 c63d f72c 963d 3f85 babd
00000160: bb23 49bd 0aa0 18bd 5431 3a3d 5888 16be
00000170: 101c 42bd 233b 53bd cda8 05be dde9 043e
00000180: c1d0 1c3d 21bf 0c3d 3c44 113e 5694 263e
00000190: 936a 46bd 87ec 0bbb 40ec 9b3d 50ce 8a3d
000001a0: 0b0a 3dbd 947d 563d 891c 33be 3033 0d3d
000001b0: 8c7c 173d 9b14 0f3d a903 173e 1ac3 8cbd
000001c0: a8ed f93d 05cc 40bd d39c 17bd 22f2 1fbd
000001d0: fe9a 0a3e f3d7 0e3e 43da c3bc 82ef afba
000001e0: 72ea c83c 8757 0a3c d9ef f0bd 823c 84bc
000001f0: 033f ecbd 1a02 ebbc 1fdf d3bd 4d51 7f3e
00000200: b2dd 3abc 9357 7f3d 47ee 37bc ec87 333c
00000210: 0f4e ecbd e6c9 d23d f09f df3a 3b8b debd
00000220: f18b b3bc 1ee5 01be 73df f13a debc 123d
00000230: e239 5a3c e504 c9bb 6b9d d13d 27ae da3d
00000240: 3db3 603e c5d2 f8bb f512 c9bd 5158 ab3c
00000250: 0e81 b83d 0ef7 e7bd 79ec 41be 2542 283a
00000260: 2213 c63d c66f 81bd 9711 32be ca26 923d
00000270: 2f78 c43d eaa1 863d fb45 c43d 7a8f 11be
00000280: 1daf 9b3d 30a1 0ebd c416 31bd 6220 27be
00000290: 3284 e0bc 0c93 603d 0857 a2bd a095 bdbb
000002a0: 785e fc3c 933c 493c c600 fc3d 237f 60bd
000002b0: 102f 7abd 3241 df3d 3171 b6bb 018f 803d
000002c0: b12d 44bc ccca f9bb 1fe1 17bd 959c 69bd
000002d0: 6c94 2cbe 05f2 dabd d829 6a3a 54b9 f2bc
000002e0: cc90 523c 4951 be3d 1f0c 223e 1992 573d
000002f0: 7de1 bc3b b8eb 183d 0626 103b b651 53be
00000300: fc9f e83c 003c 5e3d d928 d9bc f93a 3abb
00000310: 53e1 15bd 3828 5e3d c263 f7bc 34b9 85bd
00000320: dcfc 7fbd 8290 fabd 82b0 2d3a 0877 913b
00000330: bc18 f33b 643d b7bd 3729 503d 5afb 5dbc
00000340: f48b 2c3e 0db7 1cbc 1d97 94bd 5f3c a8bd
00000350: 4b3e 2e3e 4cc4 d1bd 4aa2 e0bd e826 8d3d
00000360: a073 783d 4f6e 5f3d 93c7 b5bd 7224 3f3e
00000370: c088 ae3d 6528 cb3c d4e1 a13d a1ca e5bd
00000380: 0ecd 253c 29b3 15bd 2620 aabd b5ea 0fbe
00000390: 567e 373b 5ad8 1fbd 193f 89bc f30a 3e3d
000003a0: dc9d 03bb 1906 9f3b 07cc 7a3d d46f c6bd
000003b0: c647 493b d87f 293c 9b30 c2bd 5145 b7bb
000003c0: 7ad1 f5bd 2a4d dd3a 3d65 533b b9fc 613d
000003d0: 2dd0 17be b9a7 bebd b98b 91bd a3dc 863d
000003e0: 6de6 fd3c 8346 e03d 95c4 233e aa47 c43d
000003f0: 2e7a 223e 80e9 e33d 5067 8dba c7ed fdbd
-0.05852357 0.015688136 -0.05759474 0.044526797 0.11509886 -0.016048688 -0.13621448 0.17516217
0.02425616 0.098462485 0.010473715 -0.030071389 0.0016641533 -0.0737857 -0.08629079 -0.10207937
-0.12529589 -0.0046358313 0.07801072 -0.13209048 -0.19609207 0.16096911 0.16151702 0.016670814
-0.06581586 0.026352206 0.16871904 -0.048153188 -0.09901147 0.044613715 -0.14414015 0.09003714
-0.09666281 -0.040469047 0.0082343295 0.12358383 -0.055425845 0.0004029001 -0.009303868 0.016679952
-0.013152601 0.008000332 -0.15927605 0.100366674 -0.046313804 -0.08373333 0.08546737 0.031121338
0.14607637 -0.0749321 0.008385103 -0.048236832 0.06835327 0.047852397 0.08520013 0.05646437
0.018066464 0.019013703 -0.031685155 -0.10572704 0.06721322 -0.07403784 0.024978328 0.05698594
-0.12865923 -0.02967705 -0.05938111 0.11408573 0.031051654 -0.029240321 -0.008244166 0.01236941
0.021128545 0.080101684 -0.044206746 0.016998405 -0.010847552 -0.04837194 -0.105242506 0.02286667
-0.098955765 -0.04392109 0.01116605 0.038293406 -0.08088962 0.09680614 0.07332795 -0.09107446
-0.04910634 -0.037262 0.0454572 -0.14700449 -0.047390044 -0.05157007 -0.13052674 0.12979837
0.03828502 0.034361962 0.14186186 0.16267523 -0.04844148 -0.0021350698 0.076134205 0.06777632
-0.046152156 0.052365854 -0.17491354 0.034472644 0.03698401 0.03493176 0.1474749 -0.0687315
0.122035325 -0.04706957 -0.037014794 -0.039049275 0.13535687 0.13949566 -0.023907786 -0.0013422819
0.024525855 0.00844372 -0.11764497 -0.016142134 -0.11535456 -0.028687526 -0.10345291 0.24933358
-0.011405395 0.062339377 -0.011226243 0.010957699 -0.11538326 0.10292415 0.0017061215 -0.108664
-0.021917315 -0.12685058 0.0018453434 0.03582465 0.013319464 -0.0061346167 0.10235103 0.10677748
0.21943374 -0.007593485 -0.09818069 0.020916136 0.0900899 -0.11326419 -0.18937863 0.0006418548
0.09671618 -0.06320147 -0.17389522 0.07136305 0.09593236 0.065738514 0.0958366 -0.14214888
0.076017596 -0.03482169 -0.0432346 -0.16320947 -0.027406786 0.054827735 -0.07926756 -0.005785659
0.030806765 0.012282508 0.12304835 -0.054808747 -0.06108004 0.10901107 -0.0055676927 0.06277276
-0.011973784 -0.007623052 -0.037079927 -0.057034094 -0.16853493 -0.10690693 0.0008932627 -0.029629387
0.012851905 0.09292848 0.15824936 0.052629564 0.005764185 0.037334174 0.002199532 -0.20636639
0.028396599 0.05425644 -0.026508735 -0.0028416498 -0.03659184 0.054237574 -0.030198935 -0.06529465
-0.062497005 -0.12234594 0.0006625728 0.0044392385 0.00741872 -0.08947256 0.050820556 -0.013548696
0.16850263 -0.009565127 -0.07255385 -0.0821464 0.1701595 -0.10242519 -0.10968454 0.068921864
0.060657144 0.054548558 -0.088759564 0.18666247 0.08522177 0.024799535 0.079044014 -0.11220289
0.01011969 -0.036547814 -0.08306913 -0.14054377 0.0027998886 -0.03902469 -0.01675372 0.04639716
-0.0020083105 0.004853022 0.061229732 -0.09689298 0.0030712946 0.010345422 -0.09481927 -0.00559298
-0.12002845 0.0016883959 0.0032256388 0.055172656 -0.14825507 -0.09309334 -0.07106728 0.06585052
0.030993665 0.10950949 0.15992959 0.09583981 0.1586692 0.11128521 -0.0010788236 -0.12398868
